StrongerGS/gsbadger/sqli_detect/resnet18.pth (torch, 226641 bytes, 131 tensors)

conv1.weight f4 [32, 1, 3, 3]
00000000: 8522 913d 98f2 d13c 294c 39be 7051 5e3c
00000010: 7d5c bc3d 1e3e a6bd dfe8 04bc c935 eb3b
00000020: 945b b83d 5955 833c c783 cabb c3de 4abd
00000030: 3f4e 133e 2e90 963c cdbe 8ebd 7f7e 323d
00000040: 16ef d1bb 6775 b6bb 61f4 d63d 2ec4 103e
00000050: 30b2 0abc be65 e9bc 7024 47bb 39ac 90bd
00000060: e1f4 a7bd 3872 2b3d bfed 1abe c716 25bc
00000070: 5c12 02be 6754 da3b 1acb e23d c440 e43d
00000080: a445 0fbd 04f2 7b3d 5771 36bd f544 7fbd
00000090: c4e8 b73d 263d 08bd 5d0b 6bbb 6a6b 683a
000000a0: 7d51 bb3c c451 a23d b503 a23d e824 c63a
000000b0: dd77 00bd 9309 d93b e778 fb3b e39c 35be
000000c0: 448a c6bc e03e 18bd 07b4 623d da61 393d
000000d0: 5bf8 de3c f572 9f3b 06af ad3c 5107 093d
000000e0: 2c45 0cbd 6c29 aabd 4a5f 7c3d a86d 71bd
000000f0: 250e 463e 06cf cc3c 5cbc 1a3c c8a3 df3c
00000100: 4765 eebc 75f1 fc3b a1d4 ddbd b4d6 1bbc
00000110: 5c80 1c3c 1f00 be3c 42ca a6bd a4ff 85bd
00000120: d083 113d 8004 3fbd 0236 813d 9412 113e
00000130: b9bb 16bc 2ff0 473b 2ac9 9bbd ad02 dd3c
00000140: 4ef5 bcbc 954f 673d afe7 64bd 2394 d03d
00000150: ea83 63bd d75f 83bd 0f3e 34bd 0315 a13b
00000160: 6596 b93c f3bc cd3a edfa 173d 54e6 bc3c
00000170: efa6 253d 4e4c 793d 52e4 e3ba 7bd6 cd3b
00000180: 09ba 69bc 0c12 94bd 58e3 f7bd b927 8ebc
00000190: c1fc b73d 4399 c73d 707c b7bc ca35 fbbc
000001a0: bd3f 533d 5fdb 93bc bec8 c33d 6c8a f73c
000001b0: d3a7 323c ddd7 51be 6366 433e 0de4 33bd
000001c0: 2871 9c38 083d 30bd 3f00 1c3d 809a bf3c
000001d0: e7b6 9c3d eaa1 32bd d22e 453d 8a7b 22bd
000001e0: 2ca8 8b3c 4c65 d83c 9420 fe3c cba3 83bd
000001f0: 69c9 4b3d f48a 393b c116 843d f40c 223b
00000200: f599 b63b 9b97 9bbc b052 413d ba6f 353d
00000210: 628b bebb 4b36 983d 315d a0bd 0d64 df3c
00000220: 0e51 2cba bedc 2e3d b02c 0cbd 9902 c8bc
00000230: 57dc 61bc 5908 2fbc b76c 053e 4d73 22bd
00000240: 338b bfbd 16e0 2ebd 2d5d 90bd 8891 d6bb
00000250: cdd6 efbb c72f a03d f130 a73d 0d3b a43d
00000260: d63f 013d 6404 243d dd50 c0bd 96e8 3b3c
00000270: 2803 7bbd c70f 07be 8565 b43c 2f0b 7b3d
00000280: 7bcb cfbc 85c0 253b e3a1 9f3c b672 7fbd
00000290: 01d5 7abd 6014 a8bd 5f75 08be db22 8c3d
000002a0: 0214 a83d ea87 b2b9 74a5 083d 1bd5 edbc
000002b0: 4899 83bd ead8 dcbd 44c9 ed3c cf37 d53d
000002c0: 3bf6 3b3d c513 bb3c 84da 90bc 190c 2dbd
000002d0: 4767 82bd 9dfa e6bc 7466 3a3d 3f56 b73d
000002e0: f3eb 953c 5ac5 e53c 5e3e 5d3c c997 1dbc
000002f0: 273d c03c d242 5f3d 7f39 183d f077 a73d
00000300: 3916 93bd 7c39 933d 2b8c a7bd 7458 93bd
00000310: f75d ddbb 50ec c9bd ca04 02bd 0e6f 813d
00000320: d378 bb3d 85ee 31be 5d95 17bd 8136 98bd
00000330: 88de 0dbd 5c4a 523c fb3b ed3b c2fe e63c
00000340: 4f4a 5abe 7792 06be b049 bcbd 938c 0f3b
00000350: 1a68 31be 7cc9 c73b 7bab 86bd c8a7 063d
00000360: 4f69 3abd 3dd2 92bb 6f9e 96bc 191f a3bb
00000370: ec77 b83d 3b2e 44bd de57 75bb 06a1 4abd
00000380: a57b 833e a78f 20bd 8ac0 153d c567 1a3d
00000390: ec48 4b3d f626 8bbd caf8 82bd 0c2a e83c
000003a0: d742 b23a 355d 993c 73b7 af3b c9b3 13bd
000003b0: 93fb 95bd e9cb d1bd 31cb 953c a4b5 3a3c
000003c0: f73b 9a3a c708 863d 6b82 3f3d e8d5 94bc
000003d0: 85f1 263d 4b92 433d 16ad 23bd f73a 01be
000003e0: 7a47 663e 15af 86bd 5f08 2bbc ba33 8fbd
000003f0: 5825 81bd a812 7abc 7824 99bd cf86 2ebd
0.07086662 0.025628373 -0.18095459 0.013569221 0.09197328 -0.08117317 -0.008112161 0.0071780425
0.09001842 0.016031908 -0.00618026 -0.04952885 0.14385317 0.018379297 -0.06969986 0.043577667
-0.006406675 -0.0055681947 0.1049583 0.14137337 -0.008465335 -0.028490897 -0.0030386709 -0.07064099
-0.08201004 0.041856974 -0.15129755 -0.010076231 -0.12702316 0.0066628936 0.11073895 0.111451656
-0.034978524 0.0615101 -0.044541683 -0.062321622 0.089799434 -0.03326144 -0.0035864927 0.00088661036
0.022866005 0.07925752 0.07910863 0.00151172 -0.03136431 0.006623456 0.007674325 -0.17735629
-0.024235852 -0.037169337 0.05534747 0.045259334 0.027218034 0.004865999 0.021201622 0.033454243
-0.034245655 -0.08308682 0.061614312 -0.058942467 0.19341333 0.02500106 0.009444322 0.027299777
-0.029101027 0.0077192136 -0.10831571 -0.009511638 0.009552088 0.023193417 -0.08144046 -0.065429
0.035526097 -0.04663515 0.06309129 0.14167243 -0.00920003 0.003050815 -0.076067284 0.026978815
-0.02306619 0.05647238 -0.055885013 0.10184505 -0.055545725 -0.064147644 -0.044004496 0.004915835
0.022654722 0.001569657 0.037104536 0.023059048 0.040442403 0.060863785 -0.001738677 0.0062816716
-0.014265546 -0.07230005 -0.12103909 -0.017352926 0.08983756 0.09746029 -0.022398204 -0.030665297
0.051574457 -0.01804894 0.09559773 0.030217372 0.01090427 -0.20492502 0.19082026 -0.043918658
7.459737e-05 -0.043026954 0.038086172 0.023389101 0.07652073 -0.043611445 0.048140354 -0.039668597
0.017047964 0.02641549 0.031021394 -0.064277254 0.049752627 0.0028311582 0.064496525 0.002472696
0.0055725523 -0.01899319 0.047197998 0.044296004 -0.0058149556 0.074322306 -0.07830275 0.027269388
-0.00065733574 0.042690985 -0.034222305 -0.024415301 -0.013785443 -0.010683143 0.13029753 -0.03966074
-0.09352722 -0.042694174 -0.07049022 -0.0065481104 -0.0073193074 0.07821613 0.08163632 0.080190755
0.03155502 0.04004325 -0.093904234 0.011469027 -0.061282307 -0.13189612 0.022021065 0.061289962
-0.025365582 0.0025291753 0.019486373 -0.062365256 -0.061238293 -0.08207011 -0.13326024 0.06842586
0.08206941 -0.0003405207 0.033360913 -0.02903228 -0.064257205 -0.107835606 0.029026635 0.10411035
0.04588912 0.022836575 -0.017682321 -0.042247865 -0.06367355 -0.028195674 0.045507863 0.08951997
0.018300986 0.028048206 0.013503639 -0.009618708 0.02346666 0.054507084 0.037164208 0.08177173
-0.07181973 0.07188699 -0.08181032 -0.071946055 -0.0067555862 -0.09859526 -0.03174285 0.0632001
0.09153905 -0.17376144 -0.03700768 -0.07432271 -0.03463605 0.0128351115 0.0072398162 0.02819765
-0.21317409 -0.1314181 -0.09193742 0.0021903857 -0.17324868 0.006097017 -0.06575676 0.032874852
-0.045510586 -0.0044806288 -0.018386094 -0.0049780724 0.09007248 -0.04789565 -0.0037436406 -0.04946997
0.2568027 -0.039199498 0.036560573 0.03769662 0.04963009 -0.067945406 -0.06395109 0.028340362
0.0013600242 0.018721202 0.005362445 -0.03606013 -0.073233746 -0.10243971 0.018285366 0.011395846
0.0011767138 0.06544643 0.046755236 -0.018168405 0.040757675 0.047746938 -0.03995999 -0.1262015
0.22488204 -0.06576363 -0.010439008 -0.06992288 -0.06305951 -0.015263237 -0.07477659 -0.042609032

bn1.weight f4 [64]
00000000: 0000 803f 0000 803f 0000 803f 0000 803f
00000010: 0000 803f 0000 803f 0000 803f 0000 803f
00000020: 0000 803f 0000 803f 0000 803f 0000 803f
00000030: 0000 803f 0000 803f 0000 803f 0000 803f
00000040: 0000 803f 0000 803f 0000 803f 0000 803f
00000050: 0000 803f 0000 803f 0000 803f 0000 803f
00000060: 0000 803f 0000 803f 0000 803f 0000 803f
00000070: 0000 803f 0000 803f 0000 803f 0000 803f
00000080: 0000 803f 0000 803f 0000 803f 0000 803f
00000090: 0000 803f 0000 803f 0000 803f 0000 803f
000000a0: 0000 803f 0000 803f 0000 803f 0000 803f
000000b0: 0000 803f 0000 803f 0000 803f 0000 803f
000000c0: 0000 803f 0000 803f 0000 803f 0000 803f
000000d0: 0000 803f 0000 803f 0000 803f 0000 803f
000000e0: 0000 803f 0000 803f 0000 803f 0000 803f
000000f0: 0000 803f 0000 803f 0000 803f 0000 803f
1.0 1.0 1.0 1.0 1.0 1.0 1.0 1.0
1.0 1.0 1.0 1.0 1.0 1.0 1.0 1.0
1.0 1.0 1.0 1.0 1.0 1.0 1.0 1.0
1.0 1.0 1.0 1.0 1.0 1.0 1.0 1.0
1.0 1.0 1.0 1.0 1.0 1.0 1.0 1.0
1.0 1.0 1.0 1.0 1.0 1.0 1.0 1.0
1.0 1.0 1.0 1.0 1.0 1.0 1.0 1.0
1.0 1.0 1.0 1.0 1.0 1.0 1.0 1.0

bn1.bias f4 [64]
00000000: 0000 0000 0000 0000 0000 0000 0000 0000
00000010: 0000 0000 0000 0000 0000 0000 0000 0000
00000020: 0000 0000 0000 0000 0000 0000 0000 0000
00000030: 0000 0000 0000 0000 0000 0000 0000 0000
00000040: 0000 0000 0000 0000 0000 0000 0000 0000
00000050: 0000 0000 0000 0000 0000 0000 0000 0000
00000060: 0000 0000 0000 0000 0000 0000 0000 0000
00000070: 0000 0000 0000 0000 0000 0000 0000 0000
00000080: 0000 0000 0000 0000 0000 0000 0000 0000
00000090: 0000 0000 0000 0000 0000 0000 0000 0000
000000a0: 0000 0000 0000 0000 0000 0000 0000 0000
000000b0: 0000 0000 0000 0000 0000 0000 0000 0000
000000c0: 0000 0000 0000 0000 0000 0000 0000 0000
000000d0: 0000 0000 0000 0000 0000 0000 0000 0000
000000e0: 0000 0000 0000 0000 0000 0000 0000 0000
000000f0: 0000 0000 0000 0000 0000 0000 0000 0000
0.0 0.0 0.0 0.0 0.0 0.0 0.0 0.0
0.0 0.0 0.0 0.0 0.0 0.0 0.0 0.0
0.0 0.0 0.0 0.0 0.0 0.0 0.0 0.0
0.0 0.0 0.0 0.0 0.0 0.0 0.0 0.0
0.0 0.0 0.0 0.0 0.0 0.0 0.0 0.0
0.0 0.0 0.0 0.0 0.0 0.0 0.0 0.0
0.0 0.0 0.0 0.0 0.0 0.0 0.0 0.0
0.0 0.0 0.0 0.0 0.0 0.0 0.0 0.0

bn1.running_mean f4 [64]
00000000: 0000 0000 0000 0000 0000 0000 0000 0000
00000010: 0000 0000 0000 0000 0000 0000 0000 0000
00000020: 0000 0000 0000 0000 0000 0000 0000 0000
00000030: 0000 0000 0000 0000 0000 0000 0000 0000
00000040: 0000 0000 0000 0000 0000 0000 0000 0000
00000050: 0000 0000 0000 0000 0000 0000 0000 0000
00000060: 0000 0000 0000 0000 0000 0000 0000 0000
00000070: 0000 0000 0000 0000 0000 0000 0000 0000
00000080: 0000 0000 0000 0000 0000 0000 0000 0000
00000090: 0000 0000 0000 0000 0000 0000 0000 0000
000000a0: 0000 0000 0000 0000 0000 0000 0000 0000
000000b0: 0000 0000 0000 0000 0000 0000 0000 0000
000000c0: 0000 0000 0000 0000 0000 0000 0000 0000
000000d0: 0000 0000 0000 0000 0000 0000 0000 0000
000000e0: 0000 0000 0000 0000 0000 0000 0000 0000
000000f0: 0000 0000 0000 0000 0000 0000 0000 0000
0.0 0.0 0.0 0.0 0.0 0.0 0.0 0.0
0.0 0.0 0.0 0.0 0.0 0.0 0.0 0.0
0.0 0.0 0.0 0.0 0.0 0.0 0.0 0.0
0.0 0.0 0.0 0.0 0.0 0.0 0.0 0.0
0.0 0.0 0.0 0.0 0.0 0.0 0.0 0.0
0.0 0.0 0.0 0.0 0.0 0.0 0.0 0.0
0.0 0.0 0.0 0.0 0.0 0.0 0.0 0.0
0.0 0.0 0.0 0.0 0.0 0.0 0.0 0.0

bn1.running_var f4 [64]
00000000: 0000 803f 0000 803f 0000 803f 0000 803f
00000010: 0000 803f 0000 803f 0000 803f 0000 803f
00000020: 0000 803f 0000 803f 0000 803f 0000 803f
00000030: 0000 803f 0000 803f 0000 803f 0000 803f
00000040: 0000 803f 0000 803f 0000 803f 0000 803f
00000050: 0000 803f 0000 803f 0000 803f 0000 803f
00000060: 0000 803f 0000 803f 0000 803f 0000 803f
00000070: 0000 803f 0000 803f 0000 803f 0000 803f
00000080: 0000 803f 0000 803f 0000 803f 0000 803f
00000090: 0000 803f 0000 803f 0000 803f 0000 803f
000000a0: 0000 803f 0000 803f 0000 803f 0000 803f
000000b0: 0000 803f 0000 803f 0000 803f 0000 803f
000000c0: 0000 803f 0000 803f 0000 803f 0000 803f
000000d0: 0000 803f 0000 803f 0000 803f 0000 803f
000000e0: 0000 803f 0000 803f 0000 803f 0000 803f
000000f0: 0000 803f 0000 803f 0000 803f 0000 803f
1.0 1.0 1.0 1.0 1.0 1.0 1.0 1.0
1.0 1.0 1.0 1.0 1.0 1.0 1.0 1.0
1.0 1.0 1.0 1.0 1.0 1.0 1.0 1.0
1.0 1.0 1.0 1.0 1.0 1.0 1.0 1.0
1.0 1.0 1.0 1.0 1.0 1.0 1.0 1.0
1.0 1.0 1.0 1.0 1.0 1.0 1.0 1.0
1.0 1.0 1.0 1.0 1.0 1.0 1.0 1.0
1.0 1.0 1.0 1.0 1.0 1.0 1.0 1.0

layer1.0.conv1.weight f4 [16, 32, 3, 3]
00000000: 2e14 e93a c587 743d 6f2c 9e3c e3fa 09bb
00000010: fcd5 463d 13ec 4f3c 3e5c 263a bf90 593a
00000020: b0aa 1bba 1640 cb3b 085d ecbd 3e1d 6aba
00000030: d9fe 6db9 1315 a83a 8272 323d 97e8 af3c
00000040: bafc 34bb 714c 0cbd 1e72 4f3e 03c2 a13b
00000050: 3345 02bb 3301 62b9 2194 a8bb 7f72 6d3b
00000060: 974a 233d 37a7 513c a12c 4dbd f941 8a3c
00000070: 5aeb 593d 7cc0 5ebd f372 b4ba b918 3bbe
00000080: 79b6 87ba 7ef6 43bb a2ff 583c 5156 eebd
00000090: 9d05 513c 785e 0cbe 92a4 84bc 06ae 16bb
000000a0: 9e7f 6739 ec24 543d 6c83 d83b e6b1 d8ba
000000b0: 05a4 a5bc 4ccc 233e 131f 233e 16d2 6e3b
000000c0: f123 97bd beb0 393a 0e94 403a f3d8 5dba
000000d0: 9274 913c 4697 4ebb 0228 53be 3bf8 c43d
000000e0: 2019 0abe 0b98 42bb 452d 543b bd42 efbc
000000f0: 3e2e ba3d 3596 1abb 07f3 623b 5cdd a13b
00000100: 71c5 6a3b b0ed e838 d30f 563c 919d adba
00000110: 337f c4bc 5f82 b1b9 6fc6 78bd 41f1 e73a
00000120: 311a 063d d6ee 5b3a 7b4e 973c 4e05 8a3a
00000130: 3a62 f4ba b5cc 383b d233 99bc a0df 8fbd
00000140: 1493 063e 8d28 993d 3941 d83b e192 b83d
00000150: d0a0 973a 651a b33b 7ee6 6d3e be1f a83a
00000160: 6762 f1ba 9be8 2b3d 2113 39ba 4ef0 573b
00000170: ebaf 6dbb ab2e 17bb 6d35 1dbb f909 34be
00000180: 1d63 edba e0b3 053d f46f 033e 1291 333e
00000190: 3e0d 113c faa2 11bd c328 903c 9ec9 acbc
000001a0: 9cbd ca3a fd81 13be 3c27 a23d ebb8 173d
000001b0: cd70 1dbb 6c7e 84bb 66aa 8cba d094 46ba
000001c0: 5456 d539 378d 82bc d97b b13d 4e91 d6b9
000001d0: 92da db3c 4c5f 043b fb7b 8ebb 2571 223e
000001e0: aac2 5fbd 0817 36bb 3ba7 e7bc 9457 51ba
000001f0: c933 5a3b fe34 fbbb 5c80 c53a b046 86bc
00000200: 6bab b4bc ea05 7d3a 9cf9 43bc 1555 443d
00000210: 8071 0e3e 2adb 0f3b b832 ccba aad2 a83c
00000220: f2cf 31bd 9211 e0ba 14bc ef3c fbaf 8dbc
00000230: d82c 653b 2d77 27bb 0e0a 133a 4dbc 003d
00000240: 327b c83b 55e9 dcbc 7de9 5ebd bf79 c7ba
00000250: a82d 05ba 10fa 5e3d 2f7b 333d 8e73 c23a
00000260: c0ac 9a3a c481 f3ba a22a 6939 9ccf 063b
00000270: acc4 6bba fdb3 f439 733e 333b 7b8f 13be
00000280: 7e25 5639 9323 d33d cab5 96b9 8bec 02ba
00000290: 9aa6 b13d 1eee a03a b5e1 093b 2d97 993d
000002a0: f189 ed3c 9f65 813b 0580 3c3d 44bc eb3c
000002b0: 75b5 b9b9 2573 fe39 2421 36bc c46d 843b
000002c0: a990 983a c023 603d 4822 113b 244d 8f3d
000002d0: 89fe 9b3e 2179 3a3b 4d89 21bb d735 2eba
000002e0: c329 fc3d 086a 403d f6df e4bd 5e7d e73c
000002f0: b127 b9ba fb0c b3bb 7e28 c83d dade 423e
00000300: 744c b339 dad3 7ebb 70bd 45bd e45e 0a3c
00000310: 5d33 2f3d ddcb b0bc 2b18 3e3b c8d8 bb3a
00000320: 1031 9bbd e983 a6bd 3921 9f3c 3edc 0d3a
00000330: d850 5f3a a3b3 a2ba 37df ff3d b675 67bd
00000340: 40e3 9e3d b44c 8b3b 4f5f 423d 0de4 5dbd
00000350: f440 c7ba d0bd e73c c730 633e 96bb dabc
00000360: 622d 18bc 08b1 853d 59c9 06bd 7fc4 7cbb
00000370: 881d b33b 3321 64bb eafb f43b ea24 5d3d
00000380: c299 763b 202c 51bd f976 023a 837e 1b3e
00000390: e7d5 17bd 8929 303c 164d 73b9 ac6a f6bb
000003a0: 1e09 9637 4bc5 c6bc 73d4 073b 8b18 3bbd
000003b0: d24d 45ba 39a4 3a3a 0201 fa3a 7aac 4eb9
000003c0: 073c a13d 2df3 0bbd cdca 15be 1456 c8bd
000003d0: 4f08 4b3d c2b4 a43d 7c88 3a3d 5f00 2c3d
000003e0: 3d01 013b f61c bc3d 66d4 0c3d c39e 67bd
000003f0: ca8e fbbc 73b6 20ba 20d4 0cbe 2c2d 11bb
0.0017782503 0.059699792 0.019308297 -0.002105408 0.048543915 0.012690562 0.00063461426 0.0008299462
-0.0005938215 0.006202708 -0.11541182 -0.0008930749 -0.0002269702 0.0012823663 0.043566234 0.021473212
-0.0027616457 -0.034252588 0.20258376 0.004936458 -0.0019877672 -0.00021553486 -0.0051446115 0.0036231575
0.039866056 0.012796215 -0.05009139 0.016877161 0.053202964 -0.054382786 -0.0013767168 -0.1827115
-0.0010354064 -0.002990156 0.013244541 -0.11637557 0.012757686 -0.13707912 -0.016191754 -0.002299191
0.00022077418 0.051793024 0.0066074636 -0.001653251 -0.020219812 0.15995902 0.15929823 0.003644114
-0.07379902 0.00070835266 0.00073462806 -0.0008462809 0.01775578 -0.0031523271 -0.2062073 0.09617659
-0.13486147 -0.0029692675 0.0032375616 -0.029206628 0.09090851 -0.0023588066 0.003462972 0.004939718
0.003582325 0.00011106895 0.013065296 -0.0013245811 -0.023986435 -0.00033857205 -0.060736116 0.0017695801
0.03273982 0.00083897763 0.01847004 0.0010530145 -0.0018644996 0.0028198187 -0.018701468 -0.07025075
0.13142043 0.074784376 0.006599572 0.0901239 0.0011568312 0.005465793 0.23232457 0.0012826843
-0.0018416167 0.041969877 -0.00070600404 0.003294963 -0.0036268185 -0.0023068588 -0.0023988143 -0.1758193
-0.0018111203 0.032642245 0.12835675 0.17535809 0.008853255 -0.035555817 0.017597562 -0.021092232
0.0015467885 -0.14405055 0.079176396 0.037041586 -0.0024023533 -0.004043391 -0.0010731935 -0.00075752754
0.00040690845 -0.015936477 0.086662 -0.0004092552 0.02683762 0.0020198403 -0.0043482757 0.15863474
-0.054629005 -0.0027784724 -0.028277984 -0.00079857674 0.0033295027 -0.0076662293 0.0015068161 -0.016391128
-0.022054395 0.00096520653 -0.011961367 0.047932703 0.13910484 0.00219507 -0.001557908 0.020608265
-0.043411203 -0.001709508 0.029264487 -0.017295828 0.0034969356 -0.0025553212 0.0005609103 0.031429578
0.0061182017 -0.02696673 -0.05442189 -0.0015218778 -0.00050803507 0.054437697 0.04381865 0.0014835463
0.0011800751 -0.0018578102 0.00022236494 0.0020570522 -0.0008993845 0.00046673408 0.0027350455 -0.14410202
0.00020422597 0.103095196 -0.00028745673 -0.0004994354 0.08674355 0.0012277996 0.0021039073 0.074995376
0.02899644 0.0039488818 0.046020526 0.028776295 -0.00035421146 0.00048532445 -0.0111163 0.0040414054
0.0011639792 0.054721594 0.0022145677 0.06997135 0.30467632 0.0028453546 -0.0024648488 -0.0006645596
0.12312653 0.04697612 -0.1117553 0.028258022 -0.0014126209 -0.005464194 0.09773348 0.19030324
0.00034198503 -0.0038883598 -0.048276365 0.008445475 0.042773593 -0.021581585 0.0029006104 0.0014331574
-0.07577717 -0.081306286 0.019425021 0.0005411542 0.00085188216 -0.0012413155 0.12493747 -0.056508742
0.07758188 0.004251087 0.047454175 -0.054172564 -0.0015201853 0.028288752 0.22186576 -0.026700776
-0.009288164 0.06527907 -0.032906864 -0.003856927 0.005466167 -0.0034809827 0.0074763196 0.053990282
0.0037628268 -0.05106747 0.0004976835 0.15184979 -0.037069228 0.01075209 -0.00023203003 -0.0075200405
1.7885639e-05 -0.024263998 0.0020725995 -0.045677703 -0.000752655 0.0007119808 0.0019073787 -0.00019709943
0.078727774 -0.034167457 -0.14628144 -0.09782043 0.04956847 0.08042289 0.045540318 0.04199254
0.0019684576 0.09185211 0.034382246 -0.05654789 -0.030707736 -0.00061307027 -0.13752794 -0.0022152169

layer1.0.bn1.weight f4 [16]
00000000: f085 683f 1954 6b3f 718c 6a3f 14e0 6d3f
00000010: 2866 693f 54e2 693f f830 6b3f c0d7 693f
00000020: 6a72 6a3f eb60 683f 4432 6e3f c713 663f
00000030: d81b 643f 2d85 683f cc66 663f 64d3 6b3f
0.9082937 0.919252 0.91620547 0.9292004 0.91171503 0.91360974 0.91871595 0.91344833
0.9158083 0.90772885 0.9304545 0.8987393 0.89104986 0.9082821 0.90000606 0.9211943

layer1.0.bn1.bias f4 [16]
00000000: 88e2 b938 f5c8 453a 29f9 81bb c2d1 8b3a
00000010: a428 9b3a 36d1 8cb9 0705 a43b 6902 063b
00000020: 5902 1dbb 5ac3 26bb 040c f33a 6dfb cdba
00000030: 4a43 473b fc84 d7b9 8aa4 a938 7862 7e37
8.863682e-05 0.00075448985 -0.00396647 0.0010667371 0.0011837673 -0.00026858755 0.005005482 0.0020448214
-0.0023957698 -0.0025446028 0.001854301 -0.001571519 0.0030405098 -0.00041107077 8.089196e-05 1.5162506e-05

layer1.0.bn1.running_mean f4 [16]
00000000: 5b3e 703d b8ad 593d 2e42 183c c082 ca3c
00000010: ac3e 29bc 75b3 78bc 6a7b bbb9 2c36 a83b
00000020: cf7c d73b 676f afbb 01b5 973c 80c3 28bd
00000030: 4c27 d3bc 786c aa3c 5f04 303d d207 1cbb
0.058653217 0.053144187 0.009293122 0.02472055 -0.010329884 -0.015179505 -0.0003575937 0.005133411
0.0065761576 -0.0053538564 0.018518927 -0.04120207 -0.025775574 0.020803675 0.04297292 -0.0023808372

layer1.0.bn1.running_var f4 [16]
00000000: 6d6b 833c 180a 303c 237f d63b 510b 9f3b
00000010: 493c ac3b 895e 133c 48b7 9a3b a56e ba3b
00000020: 40c8 0e3c a3a7 b33b b6f6 fe3b b7a0 093c
00000030: ee29 1d3c 65a8 c43b 4f9e 353c 3a33 ac3b
0.016042436 0.010744594 0.0065459176 0.004853644 0.00525621 0.008994707 0.004721556 0.0056894594
0.0087147355 0.0054826303 0.007780875 0.008400134 0.009592516 0.0060015195 0.011085107 0.00525513

layer1.0.conv2.weight f4 [16, 16, 3, 3]
00000000: d76a 0fbe ef4c b0bd 8e20 753b d446 273e
00000010: 66bb b43b c552 2f3c 548f 34bd 9955 06be
00000020: 8675 b2bd c288 0bba 6cac 8d3d 242a 1f3d
00000030: 0692 1dbe 20d1 ebbc 8216 f5bc 2eec f9b9
00000040: af46 1e3c eef2 b5b9 f620 50bd ba8d 3eba
00000050: ec81 1eba 5034 1bbc 4714 a0bd 6905 583c
00000060: 1bb2 ccbc 65d8 383b 2aca 3d3c 808e 50ba
00000070: bdd8 e03b 0cb6 a43b 536d 88bc 3c07 23be
00000080: b23a 2abd 6eae dd3d d874 693b 373d 5d3d
00000090: 4d28 cd3b 7323 7cbc 362c d5bc 9ec3 daba
000000a0: 80d0 0dbe 9025 acba 7cec 1e3b 236d cabd
000000b0: 2d83 c0ba 3b19 4cbe 37fe a63a 0a0a 093e
000000c0: f3b9 143a 7c53 fbb8 d1c5 9abc 225d 3abd
000000d0: d067 893b a2a6 b7bc 850b f23c be54 a8bd
000000e0: 702d ebbc bab0 69bb 8695 f33d 81ba 8a3c
000000f0: 009b f7ba 18e9 893a a107 24bc b647 243d
00000100: 6bf5 26bd 3057 873b eeea c8ba c4d3 a5bd
00000110: 686d 0fba d6ab 5db9 8a28 3bbd 3333 ee3a
00000120: a51a f2ba 8b5f 293e a430 e7bc 713e 2d3b
00000130: aa54 033b 5893 4a3d 7d8b 103e 7d70 beba
00000140: 1c8e 7d3a 7669 483a 8a4b 163a 7e68 c53b
00000150: 431a d83a d7dd 03bb 0080 fa39 b657 45bd
00000160: b7e2 3a3c a448 1cbe df9c 583b 93db 203e
00000170: 0f94 c43b 8614 53be 2f07 b3bc f986 d83a
00000180: 39ed 59bd 57be 713b b542 c9bd 2634 783d
00000190: 018b 343d 15e3 6b3e a24e 2fbd 000a 6ebe
000001a0: 57cf 18bd 5a5d 613d 4b1e 813d 1e47 8e3e
000001b0: b0d0 d33a 30c0 82bb 4c12 383a 926f 3f3d
000001c0: fed4 40bb 8ebf 84bb baae 29bb 14be 0e3b
000001d0: 9bac 633d f7c9 0f3b 39fa 59bd 20c0 3fbc
000001e0: 6227 03ba 2281 28bd b276 4d3b 2075 1bbc
000001f0: 9832 2abd 8600 893d 706a 213d 7125 ffbc
00000200: 9031 a2ba d491 c8bd a105 5c3b 5993 ff3c
00000210: 2f35 d03b 18b0 853d a19c a63d b120 d43c
00000220: 9d74 67bb 95da b33d 6526 6e3e d969 0dbb
00000230: 9e88 a53d 6c65 263b 7f97 943b 4a38 1b3d
00000240: 0540 9dbd 117c 9cbc 7a68 963a 9238 d339
00000250: 03ad ef3a 271c 76bb 5bdd 70bb d167 3cba
00000260: 7053 fe3c 3e2a cf3c f5b4 333a 9017 6bbe
00000270: b6ba 40be a814 32bc 3a68 d93d 7684 d2bc
00000280: 9c2e 073b 4793 553c f6bb a03b 0812 b1bc
00000290: 70ca 423d a4c9 56bb 92f3 d53a f8bd 2b3b
000002a0: 9798 fdbd 51f4 f7bc 26a6 ad3d 1808 bdbd
000002b0: c632 de3c 7fef 9dbd 4bcd 673d 97f1 09be
000002c0: 050f fbbc eb29 bd3d 7a6c 18bd adc5 bcbd
000002d0: df65 0bba 459e 10bd 5de3 413c f956 17bb
000002e0: 076f 6abc 5054 463c 4b95 27bc b6db 453c
000002f0: e7c9 ae3c c3a8 a53d 639b 22bc 5635 edbc
00000300: a11c bdbd c9aa 0bbd 84c9 bc3d 3269 1c3d
00000310: 1ecd cdba 29a5 663a 8971 813a 8b7e b5bc
00000320: aed6 fabc 45ae 40bd 2846 d43d 9946 8a3d
00000330: 0e34 f63a 2002 ae3d 8f2d 35bd ca05 40bb
00000340: 6a05 75bc 9607 c93a f4f7 29bd cff9 993d
00000350: 6dbf 403b 988f a9bd 5bdd 283b 8939 01bc
00000360: f6e3 b63d bbd3 3bbd 2ab1 56bb f94b 15bb
00000370: 9e48 bf39 5684 683d 83b3 f73c 6bb0 5ebc
00000380: d687 14bb ad30 1e3d 27d8 aa39 30e1 2abe
00000390: dae7 2fbb db7f 763c 0beb 163d df2c b2b9
000003a0: 7a76 3b3b 3174 abba 9c15 823d f877 1bbe
000003b0: 7019 55ba 6b2a 0cbe bfa7 58bb 9850 1ebb
000003c0: 2c97 64bc b652 b7ba 42a1 73bd 8366 5c3c
000003d0: aca2 b539 8c10 42ba 6e8d c3ba 7edf c13c
000003e0: c27d 8d3a 267d 913b d75e 433b eb08 83ba
000003f0: 156e 1ebd f0c7 543a 3953 043b 8634 08bb
-0.140056 -0.08608424 0.0037403437 0.16335613 0.0055155037 0.010700886 -0.044082 -0.1311859
-0.08713822 -0.00053228077 0.069176525 0.038858548 -0.15387735 -0.028786242 -0.02991796 -0.00047668949
0.009660407 -0.00034704007 -0.050812684 -0.00072690437 -0.00060465815 -0.0094729215 -0.078163676 0.013184884
-0.024987271 0.0028205153 0.011583844 -0.00079558045 0.0068617747 0.0050265845 -0.016653692 -0.15920728
-0.041559882 0.108242854 0.0035622623 0.054013457 0.0062609077 -0.015389311 -0.026022058 -0.0016690379
-0.13849068 -0.0013133753 0.0024249842 -0.098840974 -0.0014687531 -0.199315 0.0012740557 0.13382736
0.00056734605 -0.00011984163 -0.018893154 -0.045498975 0.0041932836 -0.022418324 0.029546509 -0.08219288
-0.02870819 -0.0035658316 0.11893754 0.016934635 -0.0018890798 0.0010521738 -0.0100115845 0.04010745
-0.040761393 0.0041302666 -0.0015328804 -0.08097032 -0.000547132 -0.00021140216 -0.045692958 0.0018173218
-0.0018471075 0.16540353 -0.028221436 0.0026434923 0.0020039477 0.049456924 0.1411571 -0.0014529374
0.000967236 0.00076451094 0.0005733302 0.0060244193 0.0016487319 -0.002012124 0.00047779083 -0.04817935
0.011406592 -0.15262085 0.0033052487 0.15708761 0.0059990953 -0.20613298 -0.021854011 0.0016519717
-0.05320475 0.0036887133 -0.098271765 0.060596608 0.044077877 0.23035844 -0.0427996 -0.23246002
-0.03730711 0.055020668 0.06304606 0.27788633 0.0016160216 -0.0039901957 0.00070217694 0.04673726
-0.0029423828 -0.0040511554 -0.0025891499 0.0021780776 0.05558453 0.0021940449 -0.053217147 -0.011703521
-0.0005003122 -0.041138776 0.0031351265 -0.009488374 -0.041552156 0.06689553 0.039408147 -0.031145783
-0.001237439 -0.097934395 0.003357269 0.03119819 0.006353996 0.06527728 0.08135343 0.025894495
-0.003531731 0.087819256 0.23256834 -0.0021577983 0.08082698 0.0025390042 0.0045346613 0.03789548
-0.076782264 -0.019102128 0.0011475228 0.00040287204 0.0018285814 -0.0037553401 -0.0036753032 -0.0007187101
0.031045645 0.025288697 0.0006855273 -0.22958207 -0.18821225 -0.010869183 0.10615583 -0.025697928
0.0020627147 0.013035602 0.004905219 -0.021615043 0.04755634 -0.0032773996 0.00163232 0.002620576
-0.1238262 -0.030267866 0.08478956 -0.092300594 0.02712382 -0.07711696 0.056592267 -0.13471065
-0.03064681 0.09236511 -0.037212826 -0.09217391 -0.0005317609 -0.035307188 0.011833993 -0.0023092611
-0.014308698 0.012105063 -0.010228465 0.012076309 0.021336509 0.08088829 -0.009924742 -0.028956097
-0.09233976 -0.03409842 0.092181236 0.03818626 -0.0015701388 0.00087984145 0.0009875755 -0.022155067
-0.030619945 -0.047041196 0.10364944 0.06751747 0.0018783824 0.08496499 -0.0442329 -0.0029300326
-0.014954904 0.0015337344 -0.041496232 0.0751835 0.0029410974 -0.082793415 0.0025766704 -0.007887253
0.08930199 -0.04585622 -0.0032759407 -0.002278088 0.00036484463 0.05676683 0.030236965 -0.013591866
-0.0022663972 0.03862064 0.00032585973 -0.16687465 -0.0026841075 0.015045132 0.03684525 -0.00033984237
0.0028604553 -0.0013080892 0.06351778 -0.15182483 -0.00081290957 -0.13688056 -0.003305897 -0.0024156924
-0.013952058 -0.0013986442 -0.05947996 0.013452175 0.0003464421 -0.00074029784 -0.0014919469 0.02366614
0.0010794925 0.0044399677 0.0029811168 -0.0009997165 -0.0386792 0.0008116951 0.0020191206 -0.002078326

layer1.0.bn2.weight f4 [16]
00000000: 1906 6b3f 58cd 6a3f 2951 6d3f 3810 6b3f
00000010: 2152 6a3f 8482 693f cf0e 723f b03c 6d3f
00000020: 20a8 693f ae0b 683f 3cfe 633f f866 6c3f
00000030: 9c0a 673f 7f46 6a3f 5bef 643f 5c1b 6d3f
0.9180618 0.9171958 0.92701966 0.9182162 0.9153157 0.91214776 0.94553846 0.92670727
0.91272163 0.9064282 0.89059806 0.9234462 0.90250564 0.9151382 0.8942773 0.9261987

layer1.0.bn2.bias f4 [16]
00000000: db7f 403b 5272 67bb d95d c63a 4a51 c93a
00000010: 6292 433b 9835 71b8 5480 0f3b f008 31bb
00000020: cb3f d3ba a653 93bb 917b 3f3b 0816 d7ba
00000030: 84f9 4dbb a241 9dba b46a 1a39 7189 b8ba
0.0029373083 -0.0035315943 0.001513417 0.0015359309 0.002984189 -5.750879e-05 0.0021896558 -0.0027013384
-0.0016117034 -0.0044960557 0.0029217938 -0.0016409764 -0.003142924 -0.001199771 0.00014726334 -0.0014079047

layer1.0.bn2.running_mean f4 [16]
00000000: 5ecd bfbd ba81 9ebe efa9 b93d 0545 713e
00000010: 0d5b 4f3e 5609 78be e38b cb3d ffb9 cfbc
00000020: f5d2 5c3e b8d4 db3d f9e2 6abe bbd9 823d
00000030: e5c7 f5bb 5d29 32be 82bd 31be a70d 55be
-0.093653426 -0.3095835 0.090656154 0.23561485 0.20249577 -0.24222311 0.09938791 -0.025357245
0.21564849 0.10733932 -0.22938146 0.06389185 -0.007500636 -0.17398591 -0.17357448 -0.20805989

layer1.0.bn2.running_var f4 [16]
00000000: 9ad6 b83e 1b35 e33e 769f 8f3e 6610 d23e
00000010: 0705 913e aacc ba3e d0da 513e fcf4 3d3e
00000020: 98d9 013f 684b 763e 0484 513e d2a4 9e3e
00000030: 410b 1b3e bee3 8c3e 5217 753e 6dfb 663e
0.36101228 0.44376454 0.28051347 0.41028136 0.28324148 0.3648427 0.20493627 0.18550485
0.50722647 0.24052203 0.20460516 0.30985123 0.15141012 0.27517503 0.23934677 0.22556849

layer1.0.ca.fc1.weight f4 [1, 16, 1, 1]
00000000: af37 2739 f30f 0dbe 3782 e23e 4b86 da3e
00000010: cb50 1340 f105 1340 0c6b d9be d0df 9bbf
00000020: 3389 8fbf 3020 56bf 01f3 0340 8786 38bf
00000030: a80f fdbf 3fab 04c0 0886 593f 893f e1be
0.00015947105 -0.13775615 0.4423997 0.42680582 2.3018062 2.2972376 -0.42464483 -1.2177677
-1.1213745 -0.83642864 2.0617068 -0.7208027 -1.9770403 -2.072952 0.8497014 -0.43993786

layer1.0.ca.fc2.weight f4 [16, 1, 1, 1]
00000000: 0b21 1e3f f655 4aba 067a 8639 e842 6f3e
00000010: 5ac8 1339 9637 333e 2fb9 2e3a f723 d739
00000020: fdb3 f0be 9082 30bd ec2c 293e 31fb de3d
00000030: 878c 61bd 1be3 88bd debc 623e 557e ccbd
0.6176917 -0.00077184977 0.00025649386 0.23365366 0.00014093649 0.17501673 0.0006665168 0.00041034792
-0.4701232 -0.043093264 0.16521043 0.10887755 -0.055065658 -0.06683942 0.2214236 -0.099850334

layer1.0.sa.conv1.weight f4 [1, 2, 7, 7]
00000000: 7fdb debd 972e ebbd 957d 4cbe c8e9 583c
00000010: 05d9 a03a edd3 0d3d e9a5 3d3b 46e4 133e
00000020: d4d4 7b3e 6d22 323e da02 253a 3e1d c23a
00000030: a19b 11be dfeb 90bd 2021 7cbe d26a 823a
00000040: c8c9 efb9 2f09 7d3d 1709 b73e 51a5 b33c
00000050: ca61 ea3e 3ba1 f93a 151d 9d3a 88a5 87be
00000060: 456a c83e 259b 80be ad7d 2b3e 31c3 b13c
00000070: 1e77 c1bd 4244 7fbe d865 f7b8 9cbd d1bd
00000080: 1952 51bd e729 7f3e 0bb3 b73a a889 4abe
00000090: feb8 023b da81 443c a985 843c 362b 81bc
000000a0: 41c4 d13e 8b17 5b3b 784b 17be 3d9f c43b
000000b0: 7174 223b 297b 143e 873f 13bd a0e1 013e
000000c0: e2c2 39bd 2c64 073d cdde e63a 14ba 863b
000000d0: a953 08be 11e9 22bb 3042 243e df0a efbd
000000e0: 256e 57be ca82 e7bd e874 2838 824f 26bb
000000f0: ef0a 93bd c243 8b3c 0a4b ab3d d0bd 01be
00000100: e720 f03c 1279 b43e 7b56 493e 650b 31be
00000110: 0f05 6b3e cc5b 823d c5db c33d 3e02 89bd
00000120: dc01 2cbd 7bd1 3fbd bc64 24be d009 e1bd
00000130: c5e3 17bc d7c1 a3bd ec3f 09bb 1f24 08be
00000140: cf32 3b3e 8719 1fbd 3a52 933d 03c2 bf3d
00000150: 4eb7 06be 22ca 2dbb edc1 b8be 6f88 1ebc
00000160: 3f6a 22be 7e0d d5be 757b 63bd c1b4 903b
00000170: 86f4 1d3d ef09 b53e d6db 95bd 330c 663d
00000180: d90f 9e3d e8d8 373e
-0.10881709 -0.11483496 -0.1996978 0.013239332 0.0012271708 0.034625936 0.0028938001 0.14442548
0.24592906 0.17395945 0.00062946754 0.001480974 -0.14219524 -0.07076239 -0.24622011 0.0009950048
-0.0004573597 0.061776336 0.35749123 0.021929415 0.45777732 0.0019045243 0.0011986817 -0.26493478
0.39143577 -0.25118366 0.1674716 0.02169952 -0.09446548 -0.24928382 -0.00011796848 -0.10241243
-0.051103685 0.24918328 0.0014015151 -0.19779074 0.001994669 0.01199385 0.016177015 -0.015767675
0.40970042 0.003343078 -0.14774883 0.006000428 0.0024788643 0.14500107 -0.035949256 0.12683725
-0.04535187 0.033054516 0.0017614007 0.0041115377 -0.13313164 -0.0024858157 0.16040874 -0.11671995
-0.2103811 -0.11304243 4.01632e-05 -0.002537698 -0.0717982 0.017000083 0.08363922 -0.12670064
0.029312564 0.3524862 0.19661896 -0.17289503 0.22951148 0.06365165 0.09563402 -0.06689881
-0.04199396 -0.046830636 -0.16054052 -0.109882 -0.009270613 -0.079959564 -0.0020942641 -0.13295029
0.182811 -0.038842704 0.07193418 0.09363177 -0.13155863 -0.0026518186 -0.36085454 -0.009676083
-0.15860842 -0.41611856 -0.05553766 0.004416079 0.038563274 0.3535914 -0.07317321 0.056163978
0.077178665 0.17953837

layer1.0.downsample.0.weight f4 [16, 32, 1, 1]
00000000: c74f 67be de5e c5bc 1d25 1ebd b7d9 67bf
00000010: d5cf d8bd ba8c 29bd cd01 a4bc f443 803e
00000020: 4a56 893d 6a4e 18be f787 d5bd 65da a1bc
00000030: ad61 a9bd bd18 0c3e 4b53 45bd 7ad6 c1bd
00000040: 552f 15be fdab b5bd 4aa2 c5be 44e9 883c
00000050: e473 6dbe 6376 a53e 003e f2be cc10 ab3d
00000060: d10b 15be 74e4 9d3e d639 9cbe 08e4 9bbd
00000070: d995 5ebe a767 3f3e a355 c4b9 b85f fd3d
00000080: e575 003e 9639 093e ebf7 42ba 86c8 05bf
00000090: 5910 963d 7e71 8f3e d78c 7f3b 4374 07be
000000a0: 2761 80bd aa78 a0bd 42a3 fabc 009f f53d
000000b0: db8c 303e 5129 143f da36 8bbd ccdc 043e
000000c0: 9d86 9f3d 8817 203e 9305 1cbd daef 73be
000000d0: 4106 913e aadc 4e3e 4ed1 6f3d 034e 1e3d
000000e0: fadb 14be ca2d 2f3e 8d93 a1be bc54 9abd
000000f0: 7710 b83e f39c bcbd da1d f63d 2feb e2be
00000100: aa9f bbbe b2e8 82be ac13 51be 1f49 f3bc
00000110: c39d 993e eb40 d73e c87a d03b 4e21 843e
00000120: 210b fbbd bd60 36be 3e61 08bf d807 f5bb
00000130: 26b5 073f 9339 513e e2e2 f33e e1d3 6ebe
00000140: 2b3b 5c3f 57cb 8c3d 9a25 423e 5265 b4be
00000150: 15e3 a43b b386 2bbe 0d6e f7bd e60f ef3c
00000160: 9bd0 463e 8ae8 e5bd d0d4 343e 88db b73e
00000170: 5eef 9c3d bcb1 6ebe ba74 b33e 5388 093f
00000180: 6dbd 8b3e ba8c 983c 94d4 bf3b e8f8 e6be
00000190: af6c b63e c904 7ebe 99d3 a83d 53ef a0be
000001a0: 4c6a cd3e 7527 c93e 3fe4 cebd e355 b93e
000001b0: f178 9bbd 485b b03b c32a b23e b141 88be
000001c0: 8178 333e d6b9 6dbe f0d2 95be 6d69 9d3d
000001d0: 189c 06bf c647 2fbe ee82 463e 5d7e 4d3e
000001e0: c3d8 bcbd e092 0cbf 47e5 a53d 3e57 93b9
000001f0: aabe 923e f325 e53e 70c1 ed3d 2819 2f3d
00000200: 4e55 a7bc dd91 e13e fd7c 033a a94c f1bd
00000210: fa8a 8e3d 12f5 7fbe a679 06bf 6547 9c3d
00000220: ce13 2fbf da75 913d 37b8 ae3b 68e6 c6be
00000230: 87db 8e3d 497b 64be 7840 f3be dedf 0b3f
00000240: 567b fbbe 4c6c 8c3e 2aa0 923e 37d9 4a3e
00000250: 4b63 d73e dc1d 783d 16a6 c6be 79ff c5be
00000260: 60f6 e33d 9cd3 fc3a 357f 163f 7fbf e4bd
00000270: 9ce1 e0bc 5904 88bb 4e42 02be cffd b53e
00000280: 41df 013e 1871 343e 0dcf 0f3d 40f3 2bbc
00000290: 91f9 843d 306c 0dbe 83e9 dc3c 75f3 84bd
000002a0: a13a 08bf 3d1b 6d3e abe9 a13d 937f dfbe
000002b0: a568 09be 7a9b a33e 4598 f4be c0ee 203e
000002c0: d006 0e3c bdbb 4d3e ca01 113e 9ed6 053e
000002d0: f864 a5be 39cf a9be f20a 393e b2a4 323c
000002e0: 9714 743c c510 33bd 9425 dbbe bcf6 093e
000002f0: 22b5 47be c846 373e d8d7 adbe 55b2 19bf
00000300: a51e 913d 31cf 8d3e bd0d b23c 0169 a33d
00000310: 3791 1dbe 82e9 573e eaf8 08bf df8a e6bc
00000320: 4a07 63bc 2b93 c7bd 2f2a 543f 7a48 9a3e
00000330: b0f3 8f3d e421 c0bd d030 483d 88aa 1ebe
00000340: 4d07 94bc 1081 16bf 7836 c13e b1eb 873d
00000350: 0512 8abd 7e60 30be b16e f53e 372a 213d
00000360: a54b 4d3e 03b2 2abd bc05 4abf 5d6b 8abe
00000370: 5dcf d33b 99f2 443c a9b4 bf3e cdc3 b739
00000380: 9d2c 5abc a686 453b 750a 8abe 83cb 293e
00000390: eb22 853e d542 a6be e4ed b63e aada 913e
000003a0: f5ae 23bd 75b8 283f d8b3 b73c f370 e03e
000003b0: 1ac4 c93d acd2 e63e 16ef 263f 1441 3ebe
000003c0: 54be 8dbe 185f 91bc ee71 80bc 7454 16be
000003d0: 5763 823d 9455 053f a701 393e 8dc3 873c
000003e0: 83b5 ad3e adbb 6e3e 7e29 5ebe d719 ae3d
000003f0: 3c35 e63c 9f6e 13be f993 733d 5d8e 90be
-0.22589026 -0.024093088 -0.038609613 -0.9056658 -0.10586516 -0.041393973 -0.02002039 0.25051844
0.067059115 -0.14873663 -0.10426324 -0.019757459 -0.08270583 0.13681312 -0.048175137 -0.09464736
-0.14568837 -0.08870695 -0.3860038 0.016712792 -0.2318874 0.32316884 -0.47312927 0.08352813
-0.14555289 0.30838358 -0.30512875 -0.07611853 -0.2173685 0.18691884 -0.00037447838 0.123717725
0.12544973 0.13400874 -0.00074374554 -0.522591 0.07327337 0.28016275 0.003899386 -0.13227944
-0.0626853 -0.07835515 -0.030595426 0.119932175 0.17241232 0.57875544 -0.067975715 0.12974852
0.07789347 0.15633976 -0.038091253 -0.23821965 0.28325084 0.20201364 0.058549218 0.038648617
-0.1453704 0.17107311 -0.31557885 -0.07535693 0.35950062 -0.09209623 0.120174125 -0.44320056
-0.36645252 -0.25568157 -0.2041766 -0.029697953 0.30003175 0.42041716 0.006362293 0.2580666
-0.12257982 -0.1781034 -0.5327338 -0.0074777417 0.53010786 0.20432119 0.47634035 -0.23323013
0.86027783 0.068747215 0.18959656 -0.3523355 0.005031953 -0.16750602 -0.120815374 0.029182386
0.19415514 -0.11225994 0.17659307 0.35909677 0.07662843 -0.23309988 0.35049993 0.5372364
0.27292958 0.018621791 0.0058541987 -0.45111775 0.35629794 -0.24806513 0.08243484 -0.3143259
0.4012016 0.39287916 -0.10102128 0.3619834 -0.07591427 0.0053819753 0.3479825 -0.2661262
0.17526437 -0.23215422 -0.29262495 0.07686124 -0.5258193 -0.17117223 0.19385883 0.20067735
-0.092210315 -0.54911613 0.08100372 -0.00028103025 0.2866109 0.44755515 0.11609161 0.0427486
-0.020426419 0.44056597 0.0005015878 -0.117822 0.069601014 -0.2499583 -0.5252937 0.07630805
-0.68389595 0.071025565 0.0053320187 -0.3884766 0.06975465 -0.22312655 -0.47510123 0.5463847
-0.49117535 0.27426374 0.2863782 0.19809423 0.42067942 0.06057535 -0.3879859 -0.38671473
0.11130977 0.0019289139 0.5878785 -0.111693375 -0.027451329 -0.004150909 -0.12720606 0.35545203
0.12682821 0.17621267 0.03510957 -0.010495007 0.064929135 -0.13810802 0.026966816 -0.06491748
-0.5321446 0.23154922 0.07905897 -0.4365202 -0.13418825 0.31954557 -0.47772422 0.15716076
0.008668616 0.20091148 0.14160839 0.13070151 -0.32303596 -0.3316591 0.18070582 0.010903524
0.014897487 -0.043717165 -0.42802107 0.13473028 -0.1950269 0.17898095 -0.33953738 -0.6003774
0.07085923 0.27697137 0.021735067 0.07979012 -0.15387426 0.2108517 -0.5350481 -0.02814239
-0.013856718 -0.09744867 0.8287687 0.3013342 0.070289016 -0.09381464 0.048874676 -0.1549474
-0.018069888 -0.58790684 0.3773687 0.066367514 -0.06741718 -0.17224309 0.47936013 0.0393469
0.20048387 -0.04167367 -0.78915 -0.27035037 0.0064639286 0.01202073 0.3744252 0.00035050363
-0.013316301 0.0030140071 -0.26961103 0.1658154 0.26003203 -0.32472864 0.3572837 0.2848714
-0.039961774 0.6590646 0.022424623 0.43836173 0.098518565 0.45082605 0.65208566 -0.18579513
-0.2768427 -0.01774554 -0.015679326 -0.14680654 0.06366604 0.52083707 0.18067037 0.016572738
0.33927545 0.2331378 -0.21695516 0.08501022 0.028101556 -0.14397667 0.05946729 -0.28233615

layer1.0.downsample.1.weight f4 [16]
00000000: a333 6c3f 3975 6c3f be5c 723f 809f 6a3f
00000010: fe35 6e3f f7dd 6b3f 9114 693f 6c19 6d3f
00000020: 3db1 6f3f cd05 6f3f eaaa 6c3f 6346 6b3f
00000030: 3ca8 6b3f 8ef6 6b3f 937e 6b3f 6b05 6f3f
0.9226629 0.9236637 0.94672763 0.9164963 0.93051136 0.92135566 0.91047007 0.92616916
0.9362982 0.93368226 0.92448294 0.91904277 0.9205358 0.9217309 0.9199001 0.9336764

layer1.0.downsample.1.bias f4 [16]
00000000: 16ec 873a 1ced d0bb f4b8 b03b 5da6 13bb
00000010: 25c3 613a fa5c 70bb 3ad8 183b d9cd 0b3b
00000020: 2a0a 453b 8219 0dbb 0d2d 8739 92cd e13a
00000030: 5c30 89bb f05f af3b e495 a4bb 9dae 5c3a
0.0010370042 -0.006375922 0.005393142 -0.002252958 0.00086121476 -0.0036676512 0.002332224 0.0021332412
0.0030065873 -0.0021530096 0.00025782772 0.0017227402 -0.004186673 0.005352013 -0.005022751 0.00084183534

layer1.0.downsample.1.running_mean f4 [16]
00000000: aefa 63bd 76b3 303c ba48 3f3d 2e75 883c
00000010: 24dd d8bc 1f01 e5bc ec9f 6b3c d0c9 563d
00000020: 38d0 523a 0434 ab3c 9d4a 243d bcf5 16bd
00000030: dfc2 be3b f72b 653d b87a 583d d082 0bbd
-0.05565899 0.010784974 0.046700217 0.016657438 -0.026472636 -0.027954636 0.01438139 0.052438557
0.0008041891 0.020898826 0.04011022 -0.036855444 0.0058215703 0.05595013 0.05285141 -0.0340603

layer1.0.downsample.1.running_var f4 [16]
00000000: ba9a 6e3c fee1 863b f2a9 c73c c495 c73b
00000010: 687a 983b 90e8 e53b 10d1 f43b 7564 913c
00000020: f509 323c 78b2 233c 36db 3c3c 5db9 1e3c
00000030: 3105 0d3c 4e85 733c d1fb 853c 57c5 0a3c
0.014563257 0.004116296 0.024373028 0.0060908515 0.004653264 0.007016249 0.0074712113 0.017748097
0.010866632 0.009991281 0.011526873 0.009687749 0.008607195 0.014863325 0.016355427 0.008469901

layer1.1.conv1.weight f4 [16, 16, 3, 3]
00000000: 8651 3a39 ba50 7bba e1eb 043a b32f c83a
00000010: 7895 ecbd 00fd adbd c3df 923d 63ee 123d
00000020: fc16 e3bd abc8 2fbd 7454 06be 73d2 183c
00000030: d335 00be a8cf 0ebd 022b f9bd 9607 97bb
00000040: 27a8 893d f06e a53b ece7 44b8 3485 273c
00000050: 59dc fe3b c03b 64be e2f1 ee39 67e4 05bc
00000060: 7f5a 30bb bb5f c93c 50c7 593d 812f afbc
00000070: 24e8 00bb 5837 f637 eb78 aebd c693 2abb
00000080: 4481 04bb 5a76 e83d b39a 69bd 43f8 193d
00000090: 454d 20be 455e 9d3d 7188 65bb 77bf aa3c
000000a0: bd60 053e 9cfb d6b8 139c f93b 9c8e 06be
000000b0: b46e cc3b 72a1 783a c63f 3d3d a33c 68bd
000000c0: d248 263d ed0a f0bd 81b1 5f3d 03b5 173d
000000d0: 2c2b 83bb 4e7a dc3a 258a 24bc 1448 a93a
000000e0: 9b2d 65be aa14 193d f7e5 3ebd 7236 d33a
000000f0: d041 063e 3540 e7bb 07b2 ad3c 2baf 1fbc
00000100: 9d01 e2bd 020b 0dbc 1e99 b5ba ead9 eebb
00000110: 84f0 8a39 4211 88bc b467 d8bb 9309 86bd
00000120: 6de2 f1ba 6f79 2b3c 8591 57bc 4833 bbbc
00000130: a569 04bb 1340 64bb 46da c4bb 3c78 d1bc
00000140: ee66 16bd b4fd b9b9 0d88 6c3c 21a9 fabd
00000150: 7dec ac3b 286d ce3b a9f0 91bc 963b fb3b
00000160: 568f 45be 5943 1fbc e956 c0bb fb95 c5bc
00000170: d237 20bb 3263 c33d 438f ba3b d107 bb3b
00000180: 813a c93d d910 f539 c7c6 5ebb 643b 4d3b
00000190: 826b a9bc 400d 9e3b 16b5 a33b 8b01 ac3d
000001a0: e54d c83d b20d 1d3b 4177 9f3a 4932 a9ba
000001b0: 7712 953c 7d41 f13d 7b6b 463d 91f4 30bb
000001c0: b1d8 603b b324 213c 7a77 bf3c d29c 7dbb
000001d0: 7707 d83a e2f7 bd3c 360f b23a e8cc f9bc
000001e0: 359d 553d 432d 9fbd 059d b9bd 36b4 15be
000001f0: 46fb dd3b ec88 d5bd d913 2ebc f78f beba
00000200: 2424 05bb c042 a5bc 4455 a1ba 2195 cc3c
00000210: 83bd db3b 72e6 1d3e 0757 12bb 9ad9 453c
00000220: 9cf0 42bc 8aef 1d3d f534 8c3c 4ca0 123e
00000230: bf74 593b 61ce 87be b16d 8b3b 5d71 de3a
00000240: c40a 9f3c eb5f df3d eb9c cabc e847 19bb
00000250: 8926 45bc 1dac c6bd 1476 3639 48ee c33c
00000260: 5515 583a 630b 643c 8f1d 2b3e ad20 f9ba
00000270: 1336 20bc 6af4 473c c012 273e 1706 5fbb
00000280: ab73 193c 2439 2c3d 63e8 e93d a8fd dcbd
00000290: 0c3b 733c ba06 68bb b3dc 2dbd 6277 eebd
000002a0: a8e2 e3bd bcfc 75bd 84cd b63c fd5f c53d
000002b0: 9d95 dcbc b19a cb3d 81fb 9f3b 59d6 fd3d
000002c0: 8247 293d 16ee 603d e3de c53b ea35 90bd
000002d0: 79c0 f63c b05c f73c 283b 8cbc ac71 343d
000002e0: daca 9bbc 6e67 a93d f441 23be 662d d63d
000002f0: 8d91 4cbe dd7b 2a3e 82ce 03bd aafe 203d
00000300: 5ff2 08bb 58a1 f53d ff31 173b 9678 a1bd
00000310: 925d 073e 36e8 65bd ef81 283d 652d 7fbb
00000320: 545c 8dbd 4a32 1d3b 2e72 7dbb 6683 083e
00000330: 539d 543c 43f6 9f3d 550c b2bd 5217 92bd
00000340: a199 fa3d 8459 ddbd 8b5a ccbd 2f9f 1cbe
00000350: 8077 0a3b 304f 573d 6f6e 10bd 4779 b23c
00000360: b179 ecbb 3a27 3f3a 026a 223b 66f7 f7bb
00000370: 1988 56bd bc9a febb 90dc 1abc a75c 0f3e
00000380: 718a 9a3e 8abf 893c cf05 4fbe ac1b a73c
00000390: 9bbd b5bd 5db1 aebd 3310 c13a 6166 b7bd
000003a0: 67f7 aabd e2f8 843b 2a66 a73c 80d8 99b7
000003b0: 4c98 0d3c 3f97 5c3e 24db a9bd 7098 af3b
000003c0: ce78 11bd c0ae 3d3c 41aa 3fbc 53bc 223b
000003d0: 878a 0dbd 48a2 623c 4f44 f93a aa56 743d
000003e0: f7a1 513d 7580 23bd b014 74bb b6b0 723d
000003f0: b213 053b 8307 8b3d 30fe b53c 6e19 95bd
0.00017768712 -0.00095869193 0.0005070549 0.0015273005 -0.115519464 -0.084955215 0.071715854 0.035871875
-0.11088368 -0.04291598 -0.13118154 0.009327519 -0.12520532 -0.034866005 -0.12166406 -0.0046090586
0.06721526 0.005048625 -4.6946036e-05 0.010224629 0.0077777323 -0.22288418 0.00045575114 -0.008172131
-0.0026909409 0.02458178 0.053168595 -0.021384956 -0.0019669617 2.9351257e-05 -0.08519157 -0.0026028021
-0.002021865 0.11350699 -0.0570323 0.037590276 -0.15654476 0.07683996 -0.0035023952 0.02084325
0.13025184 -0.00010251181 0.0076174824 -0.13140339 0.006238783 0.00094845064 0.046203397 -0.056698453
0.04059679 -0.11720834 0.05461264 0.03703786 -0.004002949 0.0016821118 -0.010042702 0.0012915158
-0.22380678 0.037373222 -0.04660603 0.0016114248 0.13111043 -0.0070572146 0.021203054 -0.009746353
-0.11035464 -0.0086085815 -0.0013854837 -0.007289161 0.0002650061 -0.016609792 -0.0066041593 -0.06544795
-0.0018454321 0.010465964 -0.013157253 -0.022851601 -0.002020457 -0.003482823 -0.0060074655 -0.025570028
-0.036719255 -0.00035474973 0.014436734 -0.1223929 0.005277215 0.0062996335 -0.017814951 0.0076670153
-0.1929296 -0.009720647 -0.0058697355 -0.024119368 -0.0024447334 0.095404044 0.0056933477 0.005707719
0.09825612 0.00046742594 -0.0033992992 0.0031315917 -0.020681147 0.004823357 0.0049959524 0.08398732
0.09780482 0.0023964462 0.0012166278 -0.0012908663 0.018197281 0.11780069 0.048442345 -0.0027001242
0.0034308846 0.00983541 0.0233724 -0.0038698209 0.0016481717 0.023189489 0.0013584855 -0.030493215
0.052151877 -0.07772305 -0.09063152 -0.14619526 0.006774339 -0.104265064 -0.010624849 -0.0014538754
-0.002031573 -0.02017343 -0.0012308736 0.024973454 0.006705941 0.15419939 -0.0022329704 0.012075806
-0.011898186 0.03855852 0.017115096 0.14318961 0.0033181158 -0.26524642 0.0042550196 0.0016971041
0.019414313 0.10906967 -0.024733027 -0.0023388807 -0.012033113 -0.09700797 0.0001740086 0.023917332
0.0008242925 0.01391873 0.16710494 -0.001900693 -0.009778517 0.012204269 0.16315746 -0.003403073
0.009365956 0.04204668 0.114212774 -0.107905686 0.014845621 -0.00354044 -0.042446803 -0.11643864
-0.111272156 -0.06005548 0.022314794 0.09637449 -0.02692681 0.099416144 0.0048822765 0.12394399
0.04132796 0.054914556 0.006038533 -0.07041533 0.030121075 0.030195564 -0.017118052 0.04405372
-0.019017626 0.08271681 -0.15943128 0.10457878 -0.19977398 0.16648813 -0.032179363 0.039305367
-0.0020896418 0.119936645 0.0023070571 -0.07884328 0.13219288 -0.056129657 0.04113954 -0.003893697
-0.06902376 0.0023986273 -0.0038672793 0.13331375 0.012976962 0.078106426 -0.086937584 -0.07133354
0.12236334 -0.108080894 -0.09978207 -0.15295099 0.0021128356 0.052565753 -0.035261568 0.021786345
-0.007216655 0.0007291917 0.0024782424 -0.007567334 -0.052375887 -0.0077699106 -0.009452 0.14000188
0.30183747 0.016814966 -0.2021706 0.020398937 -0.08874055 -0.08529923 0.0014729559 -0.08955074
-0.083479695 0.0040579895 0.020434458 -1.8339837e-05 0.008642267 0.21542071 -0.08293751 0.005358748
-0.0355156 0.011577308 -0.011698307 0.0024831488 -0.034555938 0.013832636 0.001901755 0.05965296
0.051179852 -0.039917428 -0.0037243776 0.059250556 0.0020305929 0.06788542 0.022215933 -0.07280241

layer1.1.bn1.weight f4 [16]
00000000: 932e 683f 2c3b 6d3f 4e60 693f 1d8a 693f
00000010: 5685 6a3f d330 6b3f 8bc6 6d3f 891f 673f
00000020: be6b 6a3f b1ec 6a3f fd2d 673f 94ee 6e3f
00000030: 2182 703f 1491 6d3f 7f60 6e3f 356f 683f
0.90696067 0.92668414 0.91162574 0.9122637 0.91609704 0.91871375 0.9288108 0.90282494
0.9157065 0.9176741 0.9030455 0.9333279 0.9394856 0.92799497 0.9311599 0.9079469

layer1.1.bn1.bias f4 [16]
00000000: 2202 01bb 8417 a6b9 40a4 53bb f8fd a53a
00000010: 605f 93ba 09f1 6e3b da5c e3ba d6bd e5bb
00000020: 454b a9ba eadf 33bb 8d9f d939 7052 62bb
00000030: 8fcf 1ebb 28c2 7a3b 0dd1 533a b57e 103b
-0.001968511 -0.00031679508 -0.0032293946 0.001266419 -0.0011243634 0.0036459586 -0.0017346398 -0.0070111556
-0.0012916109 -0.0027446696 0.0004150834 -0.0034534 -0.0024232601 0.0038262699 0.0008080162 0.002204818

layer1.1.bn1.running_mean f4 [16]
00000000: d158 afbe 0d31 573e f4a8 b4bb 9824 9cbe
00000010: ba3e 083c aead e9bd 4465 4e3d 4ee6 1cbe
00000020: 8b93 093f 6d24 ef3d 6c68 8ebe 2c52 393e
00000030: 1c35 fd3d 8ffd 43be 03e0 cd3e 9a71 0c3f
-0.3424745 0.21014805 -0.005513305 -0.3049667 0.008315736 -0.1141008 0.050389543 -0.1532223
0.5374076 0.116768695 -0.27814043 0.18097752 0.123636454 -0.19139694 0.4020997 0.5486084

layer1.1.bn1.running_var f4 [16]
00000000: 5d1e f33e a6a5 c03e 38cd 6b3e 060c 373e
00000010: de48 773e c898 803e 0a29 243f 0962 a13e
00000020: 76a7 373f a666 953e 8334 233f 5025 863e
00000030: 6452 763e ee7c ae3e 6982 673e 45a2 f83e
0.47484103 0.3762638 0.23027503 0.1787568 0.2414889 0.25116563 0.6412512 0.31520107
0.717399 0.29179877 0.63752 0.26200342 0.24054867 0.3407969 0.22608341 0.48561302
