StrongerGS/gsbadger/sqli_detect/word2vec_model_final.pth (torch, 31835 bytes, 5 tensors)

word_embedding.weight f4 [56, 32]
000000 b8 48 09 bf 5f 33 22 bf 92 2d 07 bf 1d c9 56 3e
       -0.53626585 -0.63359636 -0.5280391 0.20975156
000010 c3 7f 85 3e 48 33 ba be ed f7 a2 bf 14 53 5a 3f
       0.26074037 -0.3636725 -1.2731911 0.8528302
000020 7a ed 10 40 be eb 16 be b4 d8 34 3f 1b 68 3d bf
       2.2644944 -0.14738366 0.7064316 -0.7398698
000030 b5 9c 3f c0 5a ee 6c 3f 45 23 e8 be 25 1b cd 3e
       -2.9939396 0.92551196 -0.4533941 0.40059772
000040 b8 d6 81 be 02 10 68 3f db af 24 bf bc 76 a2 bd
       -0.2535913 0.90649426 -0.64330834 -0.07932803
000050 da f8 75 bf 5e 3e 0d 3f 52 3f 71 3f 48 6c e4 3e
       -0.9608284 0.5517329 0.94237244 0.44613862
000060 db 84 87 3f 40 d2 b6 bf 2c 9c 75 3f 5c cc be bf
       1.0587419 -1.4282913 0.95941424 -1.4906116
000070 f3 49 23 3f b0 e9 bc bd 7d 54 d3 3e 0d 72 d2 3e
       0.6378471 -0.0922426 0.41275397 0.4110264
000080 51 98 56 bf 9c 2a ea 3e 60 76 b6 3f 98 54 85 3f
       -0.83826166 0.45735633 1.4254875 1.0416441
000090 9f c2 be be 28 12 8f bf b2 48 e2 3f 23 ea 15 3f
       -0.3725786 -1.1177416 1.7678435 0.5856039
0000a0 c7 03 97 bf a6 b5 dd be a3 af 4d 3f 5a 41 f0 bd
       -1.1798028 -0.4330265 0.80346125 -0.11731215
0000b0 75 a0 e5 bb 72 24 e0 3f 14 24 32 bf a2 b1 04 3e
       -0.0070076534 1.7511122 -0.695863 0.12958387
0000c0 52 76 92 3f ab be 1b 40 51 ee 3a 3f 57 2b ef 3e
       1.1442358 2.4335124 0.7301989 0.46712753
0000d0 26 c5 16 3f 10 4b 1b 3d 94 98 24 40 00 c0 ec 3f
       0.58894575 0.037913382 2.5718126 1.8496094
0000e0 50 e0 7c 3f 3f f1 e0 3e 94 28 0b bf 5b f9 58 3f
       0.98779774 0.43934056 -0.5435879 0.84755486
0000f0 ad dc 18 bf 6b 0c b0 3d 59 0e e1 bf 93 2d 78 bf
       -0.59711725 0.085961185 -1.7582504 -0.9694454
000100 81 b4 f6 bf 35 25 28 bf e2 26 9a bf 41 50 45 3f
       -1.9273835 -0.65681773 -1.2043116 0.7707558
000110 1f 95 86 3f ef 29 0a 3f e2 79 28 bf 42 b1 a2 3e
       1.0514258 0.53970236 -0.6581098 0.31775862
000120 1c 46 de bf 9c bd 2e bf 23 69 70 3e 7b 9b 14 c0
       -1.7365146 -0.6825807 0.23477606 -2.3219898
000130 00 4e 0d bf 88 06 f6 3e 45 00 1e c0 59 53 5c bf
       -0.55197144 0.48051858 -2.4687665 -0.8606468
000140 4d 8a 14 40 3b 2b 6c be 80 10 f0 be 70 19 7c bf
       2.3209412 -0.23063366 -0.46887589 -0.98476315
000150 f4 e7 ef bf c4 93 a3 3f 00 e5 86 3f 48 4b 8a 3e
       -1.8742661 1.277947 1.0538635 0.2701056
000160 e6 8e db 3e 71 31 a7 be 65 68 33 40 8f 5f 13 c0
       0.4288246 -0.32654908 2.8032467 -2.3027074
000170 79 81 e1 3f 1d 9e 29 3f a1 4a 15 bf 34 37 75 3f
       1.7617637 0.66256887 -0.58317 0.9578736
000180 2b bf 23 c0 72 76 b3 be c6 ba 92 be 70 35 b8 be
       -2.558543 -0.35051304 -0.28658122 -0.3597827
000190 8d bf 8b bf 94 bc 80 bf b4 27 83 be e9 64 2e be
       -1.0917832 -1.005755 -0.2561623 -0.17030682
0001a0 a7 b9 00 3f 9b 81 52 bd 68 f3 09 bf d6 d7 b3 bf
       0.50283283 -0.051393133 -0.53887033 -1.4050243
0001b0 bb c3 3a 3e 57 77 04 be 5f d7 86 3c 0f 1f a7 bf
       0.18238728 -0.1293615 0.016460119 -1.3056353
0001c0 a2 9f 72 3f e7 d0 34 bf e7 61 81 bf 54 e4 3b bf
       0.9477483 -0.7063126 -1.0108002 -0.73395276
0001d0 a3 d8 fa be 2d d1 88 bf 3e 70 93 be b3 b1 bb 3e
       -0.48993406 -1.0688835 -0.28796571 0.3665901
0001e0 0e ef 08 c0 0f f7 74 3f 74 8a 36 3f e7 eb 96 3f
       -2.1395907 0.9568948 0.7130501 1.1790742
0001f0 52 e0 c1 3e c5 70 8f 3f 6c 50 02 c0 df 26 f3 3e
       0.37866455 1.120629 -2.0361586 0.47490594
000200 38 d5 0e bf ca ed 4e 3f 80 b7 88 bd 3b 41 88 3f
       -0.55794096 0.8083159 -0.06675625 1.0644907
000210 ce 86 cd 3f cc 2f c5 3e 9d dc e8 3e be 45 59 be
       1.6056764 0.3851303 0.45480815 -0.21218011
000220 45 2e cd be fd e2 c6 3f b4 24 42 3f ab 08 31 bf
       -0.40074363 1.5538021 0.75837255 -0.6915385
000230 4f 07 03 40 ab bd 5c bf e7 9a c7 3f 75 9c 23 40
       2.047321 -0.8622691 1.5594147 2.5564244
000240 e8 51 d5 3e 4d 6f 69 be b6 45 4c 3f e1 d2 4a 3f
       0.41664052 -0.22796364 0.7979387 0.79228026
000250 87 b4 ed be f9 23 86 3e 03 05 c8 bf 80 d7 c1 be
       -0.46426794 0.2619932 -1.562653 -0.37859726
000260 ba e1 c3 bf 98 29 ad 3f 89 50 40 3e d3 d7 99 bf
       -1.5303261 1.3528318 0.18780722 -1.2018989
000270 01 ba 6b bf 37 6b 0f 3f 2f 18 d4 bf 32 45 5b 3f
       -0.92080694 0.5602297 -1.656988 0.8565246
000280 ee 0a 6e 3d 19 1c 65 bf 35 87 b4 be 86 e7 34 bf
       0.058115892 -0.89496 -0.35259405 -0.70665777
000290 52 97 80 3e de 04 20 bf af 0c 3f be 5c 6e 61 bf
       0.25115448 -0.62507427 -0.18657182 -0.8805902
0002a0 84 8f 23 3e 40 4e 53 3f aa 57 ac 3f 7c 50 c8 bf
       0.15972716 0.82541275 1.3464253 -1.5649562
0002b0 96 ca 88 3f 1b 33 f6 bf 0d 6a 98 bf 12 46 a5 3e
       1.0686824 -1.9234346 -1.1907364 0.32280022
0002c0 13 da 54 3f a0 49 4a bf f3 e9 6c be 33 0d 95 3f
       0.83145255 -0.7901859 -0.2313612 1.1644653
0002d0 52 b3 98 3e 3a 19 00 3f ba 8d cf 3f f3 62 44 bf
       0.2982431 0.5003849 1.6215127 -0.76713485
0002e0 0f 31 ec 3f 31 cd c2 bf d9 0e da 3f 6f 97 bb be
       1.8452471 -1.521887 1.7035781 -0.36638972
0002f0 67 a2 1e bf 09 7f d0 bf 27 54 cf be a2 cb ae bf
       -0.61966556 -1.6288768 -0.4049389 -1.3655894
000300 3c 8d 43 3f b3 cd b0 be 92 7b 0b bf 6d 08 b0 bf
       0.7638738 -0.34531936 -0.5448543 -1.3752571
000310 86 28 64 3f d6 76 bb be 27 ca ee 3f 37 03 95 be
       0.89124334 -0.36614102 1.8655442 -0.29104015
000320 0b 31 f3 3f f2 b2 c4 be df 7c a8 bf 7c c2 01 bf
       1.8999342 -0.38417774 -1.3163108 -0.50687385
000330 90 96 33 3c 83 a6 fb bf e4 b1 24 3f 12 c5 f5 3e
       0.01096119 -1.966019 0.6433394 0.48001915
000340 53 6a 07 be 9a 16 35 bf 62 8c ff 3f 26 1d 00 3f
       -0.13224153 -0.7073761 1.9964716 0.50044477
000350 50 95 3d bf 9e c8 e6 bf 45 75 f0 3f 98 09 be bf
       -0.7405596 -1.8029974 1.8785788 -1.4846678
000360 d2 9d 35 be 7f ad 9a bf 93 57 da be 73 5a dc 3f
       -0.17735985 -1.2084197 -0.4264494 1.7215103
000370 9b 9b 14 c0 37 1b ad 3f ca f0 19 be 1c 6d 94 3f
       -2.3219974 1.352393 -0.1503326 1.1595798
000380 00 79 84 3f 2c 6a 3c bf e5 b7 7b bf 29 11 d9 bf
       1.0349426 -0.73599505 -0.98327476 -1.6958362
000390 27 a0 f1 be e3 2c bf 3e 1c dc f1 be 10 ed 8f 3f
       -0.471925 0.37338933 -0.47238243 1.1244221
0003a0 db 21 aa 3f 36 b5 46 be 5c d6 62 bf 9a e2 2f bf
       1.3291582 -0.19405064 -0.88608336 -0.6870514
0003b0 16 f2 ba bf fa f8 f1 bf b4 eb a2 be bd d1 fc be
       -1.4605129 -1.8904107 -0.31820452 -0.49378768
0003c0 65 1f a5 be 5a 01 99 be 27 6e f4 3f 22 25 ec bd
       -0.32250515 -0.29883844 1.9096116 -0.1153052
0003d0 fa 70 87 bf c9 71 92 bf 6b b4 d5 bf ae 87 2b bf
       -1.0581353 -1.1440974 -1.6695684 -0.67003906
0003e0 00 30 b5 bf bc a4 5a bf 10 e5 e7 be 63 1f cc bf
       -1.4155273 -0.85407615 -0.45291948 -1.5947078
0003f0 b1 99 90 bf c3 7e 2a c0 b2 5a 5f 3d 1a a7 0c bf
       -1.1296903 -2.663987 0.054529853 -0.54942477

linear_in.weight f4 [64, 32]
000000 ef 09 bb 3c 14 ff dc bd 30 7c 34 be ed f7 e3 3d
       0.022831885 -0.1079084 -0.17625499 0.111312725
000010 ca 88 4b 3e f7 d7 39 be 09 fd df 3e f4 e1 be be
       0.198764 -0.1814879 0.43747738 -0.37281764
000020 0c ba 58 3e 2d a0 84 3d 97 89 85 bd fc 00 9b bd
       0.21164721 0.064758636 -0.06520384 -0.07568547
000030 20 5b 8d 3d d8 63 c8 bc 8e 7f 11 3e bd 85 56 3e
       0.06902146 -0.024461672 0.14208815 0.20949455
000040 8f 0a 2f 3d 88 0a 3d be 0e f2 7e bd 87 b9 c8 bc
       0.04273468 -0.18461049 -0.06224256 -0.024502529
000050 e6 1b 91 3d 78 d7 65 3e c3 71 6d 3e 6b 76 b0 be
       0.07085399 0.22445476 0.23187928 -0.34465346
000060 2d 27 24 3e dd 63 b0 3d 5d 05 89 3d 38 43 41 be
       0.1603057 0.086127974 0.06690476 -0.18873298
000070 ec 9b 6d 3d 08 19 8a 3d b4 5e 9d bd 8a 59 f0 bc
       0.058010027 0.067430556 -0.07684079 -0.02933957
000080 93 86 ae 3d 29 6a 35 be 0b b4 9a 3d 1d 88 8d 3d
       0.08521762 -0.17716278 0.07553872 0.06910727
000090 97 d5 4c 3d e1 9a 48 be 71 fb 4c be b6 1f 7b 3e
       0.050008383 -0.19590332 -0.20017792 0.24523816
0000a0 03 15 a0 3d 1d 92 ea bd 65 df 18 3e dd 7e 3d be
       0.07816508 -0.1145365 0.14928968 -0.18505426
0000b0 3e 02 42 be 23 f4 53 bd d8 f2 af 3b 69 20 0f 3e
       -0.18946168 -0.0517465 0.0053695254 0.13977207
0000c0 01 6e d0 3c a0 8c 7d 3e 37 a9 51 bd 8e 05 41 be
       0.025443079 0.24760675 -0.051186766 -0.18849775
0000d0 4f 16 ac bc 9e 9a c1 be 26 93 22 3d 9a ff 88 be
       -0.021006731 -0.37813276 0.039691113 -0.2675751
0000e0 1f c0 2c be 1b 5d 0c be 7b 07 b0 bd f1 8d c9 bb
       -0.16870163 -0.13707392 -0.08595177 -0.006150954
0000f0 b6 24 7b bc 12 15 c3 be d3 67 3d 3e 29 2f 2c bd
       -0.015328577 -0.38102013 0.18496637 -0.042037163
000100 34 73 34 be 47 b8 0e bd 29 2c ab bc db f3 99 3d
       -0.17622072 -0.03484371 -0.02089508 0.07517215
000110 90 1f 12 3e 63 7d 8c bd a0 15 0f 3d 2f 37 8a 3d
       0.14269853 -0.06859853 0.034932733 0.06748807
000120 45 f3 de bd 62 61 b9 bc 1c 5e fc 3a bf bd e6 bd
       -0.10886244 -0.022629444 0.0019254121 -0.1126666
000130 48 a3 0d 3e 7a 9a 50 3c 73 bb 41 3e 3f 05 90 3e
       0.13831818 0.012732143 0.18919162 0.28129002
000140 be 8e ce 3d db 5f 07 be 76 44 f2 3d 24 f8 87 3e
       0.1008582 -0.1322016 0.11829464 0.26556504
000150 13 27 08 3e 20 44 35 3d a7 e8 94 be a4 37 ad be
       0.13296156 0.044254422 -0.2908375 -0.33831513
000160 b2 37 93 be 0f 18 36 3e e0 03 5d 3d ca 91 5e be
       -0.2875343 0.17782615 0.053958774 -0.21735302
000170 bd 0f e7 bd c6 6b 2a bc 10 0f 7c bd 60 15 10 bd
       -0.11282299 -0.010401672 -0.061537802 -0.035176635
000180 33 e7 1d bc a4 ab 8e 3d a2 c7 5d be 74 59 00 3d
       -0.009637642 0.069663316 -0.21658185 0.03133531
000190 93 19 8a 3e c9 5c 26 3e 33 50 84 3d 78 2a a6 3e
       0.26972637 0.16246332 0.06460609 0.32454276
0001a0 a0 91 49 3b c4 61 21 3e a1 4a 85 3d 43 0a dc bd
       0.0030756965 0.15759951 0.06508375 -0.10744145
0001b0 5b 0f 3d 3e 64 57 20 bd f5 ca 05 3c 13 c8 b4 3e
       0.18462889 -0.039145842 0.0081660645 0.35308895
0001c0 cc 16 bd bc 1b c4 13 3c 72 96 83 3d 15 63 6a 3e
       -0.02308216 0.009018923 0.064251795 0.2288936
0001d0 8a ce 38 be 10 84 24 bd 3d 83 75 be 60 41 8c be
       -0.18047538 -0.040165007 -0.23975845 -0.27393627
0001e0 8d 4e 8a be 64 be 74 3d 90 47 57 bd 7c b6 41 be
       -0.27013054 0.059751883 -0.05255848 -0.18917269
0001f0 6b b8 26 be 05 a0 29 bc 8a 24 9a be 88 96 8d bc
       -0.16281287 -0.010353093 -0.30106002 -0.017283693
000200 da 74 37 be 20 fd 28 be 18 e7 cb 3d f7 8d 4a 3d
       -0.17915669 -0.1650281 0.09956187 0.049451794
000210 7a ee 93 3c 6a dd 07 be 85 67 93 bc 73 2b ac 3d
       0.01805805 -0.13268057 -0.017993698 0.08406725
000220 91 a6 cc bd 06 77 9f be ad bb 83 3e 60 98 2c be
       -0.099927075 -0.31145495 0.25729123 -0.16855001
000230 12 ae 4b 3d 34 a6 aa bd f4 23 81 be 9a e9 98 bc
       0.049726553 -0.08332482 -0.25222743 -0.018666077
000240 7d 4c d5 3d 46 8b e7 bd 7f 03 97 be 9f 5a e4 bd
       0.104149796 -0.11305861 -0.29494855 -0.11150097
000250 be fe b7 bd 4d a7 66 3e 7a 73 99 3e 80 4e dd bd
       -0.08984135 0.22524758 0.29970914 -0.10805988
000260 4c 26 25 3e b3 18 91 be 3c 04 30 3e 44 fb 81 bd
       0.1612789 -0.28339157 0.17189115 -0.06346753
000270 d9 5d 2e bc 31 f6 96 bd f1 19 00 3e 90 75 2f 3d
       -0.010642492 -0.07371176 0.12509896 0.042836726
000280 73 65 0c bc f5 6a 3d be 2c c1 33 be e3 e9 d7 bd
       -0.008569109 -0.18497832 -0.17554158 -0.10542657
000290 04 d6 66 3e da ed 07 be 0e ad f2 bd 46 70 1a 3e
       0.22542578 -0.13274327 -0.11849414 0.15081891
0002a0 59 f2 e6 bc 12 5b 5f be c7 c3 07 be 73 97 70 3d
       -0.028191732 -0.21812084 -0.13258277 0.058738183
0002b0 5d c9 8b be b4 83 f6 bd 06 95 36 be 70 24 07 be
       -0.27302065 -0.12036839 -0.17830285 -0.13197494
0002c0 e1 59 49 bd b9 cc 3c 3e a3 d6 25 3c 4f 61 f7 bd
       -0.04915798 0.1843747 0.010121974 -0.12079107
0002d0 1c 69 e8 bd 1b 40 32 be 3e f4 32 bd 4e eb 19 3e
       -0.11348173 -0.17407267 -0.04368996 0.15031168
0002e0 da 9e 5b be c3 62 c0 bd c4 bb f8 3d 12 48 02 3e
       -0.21447316 -0.09393837 0.121451885 0.12722805
0002f0 79 a6 17 3d fe 33 52 be 81 45 2d 3e 57 32 38 3a
       0.037023995 -0.20527646 0.16921045 0.0007026544
000300 fc af c8 bc 72 d2 41 bd ff 1e 4f 3e 89 65 13 be
       -0.024497978 -0.047319837 0.20226668 -0.14394201
000310 0f 1b 6b 3d c2 eb 88 be 94 5f f0 3c b0 f7 04 be
       0.057398852 -0.2674237 0.02934245 -0.1298511
000320 82 d6 94 3e a2 b4 d5 3c 0c 7f e6 3d e5 3c 17 be
       0.29069906 0.026087109 0.11254701 -0.14769323
000330 d9 b3 a8 bd a8 8d 6a be c1 60 89 bc 9a da 91 3c
       -0.08237428 -0.229056 -0.016769769 0.017804433
000340 28 3a a8 bd 99 a4 0f 3e 1a c0 3c 3d e3 16 75 3d
       -0.082142174 0.14027633 0.04608164 0.05983628
000350 9e 1c 08 3e 16 33 64 be 25 68 c4 bd ae d5 07 3e
       0.13292167 -0.22285113 -0.095901765 0.13265106
000360 45 9f 6b be 9e 9d 88 3e 24 f4 71 3c 7b ba 4e 3e
       -0.23009975 0.26682752 0.01476768 0.20188324
000370 d6 49 76 bc 83 a0 63 3e be 7f 4d 3d 0e c6 5c 3e
       -0.015032252 0.22229199 0.050170653 0.21559927
000380 1d 8a 5c 3d 40 98 3f 3d 6f 15 50 bc 72 9a 03 bd
       0.053842653 0.046776056 -0.012700423 -0.032129712
000390 ba 6e 92 3b 14 d0 b9 3e 92 52 bb bd e1 41 7e 3e
       0.004468766 0.36291564 -0.091466084 0.24829818
0003a0 7e 71 59 be 93 be e4 bd 4d 91 95 be 5e ae 37 3c
       -0.212347 -0.11169162 -0.29212418 0.011211006
0003b0 17 14 88 be c5 84 84 bb 34 b1 2c be 0b 71 1d 3e
       -0.26577827 -0.0040441477 -0.16864473 0.15375154
0003c0 4c c3 86 3e 46 ab 26 3e d3 d9 7d 3e 36 3f ab be
       0.26320875 0.16276273 0.24790125 -0.33446664
0003d0 75 15 a0 bd 63 f7 91 be e1 04 44 3d 45 31 25 3e
       -0.078165926 -0.28509054 0.047856215 0.16132076
0003e0 19 50 4e 3d 61 ab ae 3d 9f 57 89 3e 06 95 47 bd
       0.050369356 0.08528782 0.26824662 -0.048726104
0003f0 35 ef 4b bd 69 97 4e 3e 91 c4 c2 bd c3 74 f1 3d
       -0.049788672 0.20174946 -0.09510148 0.11789849

linear_in.bias f4 [64]
000000 db a4 78 3e 37 b5 85 3e 2a 76 4b 3e 6b bf 98 3e
       0.24281637 0.26114818 0.19869295 0.2983354
000010 53 98 8b 3e 15 89 62 3d 83 54 b1 bd e8 5b 06 3d
       0.27264652 0.055306513 -0.086586975 0.032802492
000020 d3 bc 6f 3e 84 74 ab 3d f3 11 b9 3d 49 7a 2d 3e
       0.23411874 0.08371833 0.09036627 0.1694118
000030 f6 a7 67 3e a4 ee ac 3d d0 33 13 3e 99 70 08 3d
       0.22622666 0.084439546 0.14375234 0.033310506
000040 99 0e f8 bc 52 19 4e 3e d3 af 07 bd 3e e3 e1 3c
       -0.030280398 0.20126846 -0.033126663 0.027574178
000050 ee 74 f4 3d 5c 41 16 3c d9 a7 7d bd 33 aa 04 3e
       0.11936365 0.009170856 -0.06192765 0.12955551
000060 ba 19 82 3c c2 80 33 3e c2 19 4c 3e 20 e4 43 3d
       0.015881408 0.17529586 0.19931701 0.04782498
000070 3b 40 ea 3c 71 4c 4a 3e 6a 31 28 3e 1c 7e 65 3d
       0.02859508 0.19755723 0.164251 0.05602847
000080 fe 8c 53 3e 37 cc 37 3e 50 35 b6 3b fb 2b f7 3d
       0.20659253 0.17948996 0.0055605546 0.120689355
000090 64 39 84 3e 67 2a 2f bc ed f4 28 3e a4 16 fe 3c
       0.25825036 -0.010691262 0.16499682 0.031016655
0000a0 05 60 a5 3e e4 95 23 3e 87 5e 50 bd 41 f6 1a bd
       0.3229982 0.15975147 -0.0508714 -0.037832502
0000b0 1e 7e ec bd 0f 84 19 3e c6 1e a6 3d ea ec 3d bd
       -0.115474924 0.14991783 0.08111338 -0.046368517
0000c0 58 9f 9b bc 11 86 e6 3d 8b fc bf 3d 2d 78 68 3e
       -0.01899688 0.1125604 0.093743406 0.22702093
0000d0 65 cc bb 3d b6 3c d8 bc f0 cb 69 3e a8 71 89 ba
       0.091698445 -0.026396137 0.22831702 -0.0010486143
0000e0 b8 d0 5a 3e 58 24 70 3e e7 23 dc 3d f2 0a 7b 3e
       0.21368682 0.23451364 0.10749035 0.24515894
0000f0 bc 9d ea bd 12 85 8f 3d b7 ba b5 bd 91 6e 83 3d
       -0.11455867 0.07007803 -0.08873504 0.06417573

linear_out.weight f4 [56, 64]
000000 83 a2 b3 be 7b 01 0c be fa 44 c9 bd 03 59 85 be
       -0.35084924 -0.1367244 -0.09827609 -0.26044473
000010 43 51 24 be c6 93 01 be 86 13 8a be f8 95 48 be
       -0.16046624 -0.12654027 -0.2696802 -0.19588459
000020 75 0e 2a be f8 f6 9c be 59 66 90 be 35 a9 ae be
       -0.16607077 -0.30657172 -0.28203085 -0.3411347
000030 ce 35 43 be 2e bb 9c be ff 81 5f be fd 14 08 bd
       -0.19063494 -0.30611557 -0.21826933 -0.03322314
000040 1f 87 19 be df e5 61 be f4 a6 91 3c a0 83 1e be
       -0.14992951 -0.22060345 0.017779805 -0.15479898
000050 dc 4f b8 be c3 87 71 be 8f 38 bc bd 6e 26 88 be
       -0.35998428 -0.23586945 -0.09190475 -0.2659182
000060 78 83 7f be 5c 0c b0 be 12 6a 4b be 0d e1 86 bd
       -0.24952495 -0.3438443 -0.19864681 -0.06585894
000070 93 16 c6 bd 3c 69 a6 be b2 fb 8b be 21 0a 8b be
       -0.096722744 -0.32502162 -0.27340466 -0.27156165
000080 2d f0 58 be f2 60 4a be bf e4 84 be 61 76 dd bd
       -0.2118537 -0.19763544 -0.2595577 -0.108135946
000090 86 f5 92 bd f0 14 d7 bd 65 d1 87 be 4c 06 d0 bd
       -0.07175736 -0.105020404 -0.26526943 -0.10157451
0000a0 23 a1 4d be 3e 12 86 be 55 01 58 be f0 3e 81 be
       -0.20081 -0.26185793 -0.21094258 -0.2524333
0000b0 8c fc 92 be 2b 8e 53 be 68 c3 ae be 7d 9a 4d be
       -0.28708303 -0.20659702 -0.34133458 -0.20078464
0000c0 06 cf ae bd d3 37 87 be 89 17 2d be 6a 8b 94 be
       -0.0853558 -0.26409778 -0.16903509 -0.29012614
0000d0 7c 35 ba be 45 13 00 be 9d 9b 0e be b0 61 39 be
       -0.3636893 -0.1250735 -0.1392655 -0.18103671
0000e0 33 a2 29 bd d2 f1 61 be ba 81 81 be af 47 8b be
       -0.04141445 -0.22064903 -0.25294286 -0.27203128
0000f0 e5 b5 0c be 70 dc 59 be 8a a7 31 bd c3 0a 3d be
       -0.13741262 -0.21275496 -0.04337267 -0.18461137
000100 37 b9 84 be 48 41 8c be 96 e3 67 be 59 d4 b8 be
       -0.25922558 -0.27393556 -0.22645411 -0.36099508
000110 1b 5a a8 be 99 9a a2 bd 53 11 e6 bd 4e f5 2a be
       -0.32881245 -0.079396434 -0.11233773 -0.16695139
000120 26 83 dc bd cd 7e 86 be ee 2c 36 be 43 f1 9d be
       -0.10767202 -0.26268616 -0.17790577 -0.3084813
000130 bb 9f 8e be 6a 0d 01 be 9d 65 81 be 7c a0 34 bd
       -0.2785624 -0.12602773 -0.25272837 -0.044098362
000140 7f 7c 80 be f9 87 76 bc eb 9c b0 bd 61 cc 1f bd
       -0.25094983 -0.015047067 -0.0862368 -0.03901327
000150 6b c3 bd be 39 f9 2f be 65 9c a0 be 19 b4 47 be
       -0.37063155 -0.17184915 -0.3136932 -0.19502296
000160 73 52 7c be c5 b3 2b be 53 0f 94 be 8d b1 42 be
       -0.24640827 -0.16767795 -0.2891794 -0.19013043
000170 73 db 62 bd b9 72 22 be 3b e4 ff bd 23 56 99 bd
       -0.055385064 -0.15864076 -0.124947034 -0.074871324
000180 b5 e1 89 be 21 28 ac be 86 45 02 be 0a 85 ad be
       -0.26930013 -0.33624366 -0.12721834 -0.33890563
000190 41 b3 a8 bd 81 0b 59 be de 39 92 be 17 3d 76 be
       -0.08237315 -0.21195795 -0.28559774 -0.24046741
0001a0 22 5a a9 be ef 29 80 be 28 0c 54 be 49 13 5f be
       -0.33076578 -0.25031993 -0.20707762 -0.217847
0001b0 65 f6 a3 bd cb 47 66 be 8a 85 91 be 9a 97 0c be
       -0.080059804 -0.22488324 -0.28422195 -0.13729706
0001c0 ca cd 21 3d 15 59 27 be f5 b3 cb bd 15 a9 a2 be
       0.039502896 -0.16342576 -0.099464335 -0.31769624
0001d0 71 c4 12 be da 5e db bc c8 03 a2 be 4b b1 83 be
       -0.14332749 -0.026778627 -0.3164351 -0.257212
0001e0 9c 49 b9 bd 20 6b 43 be 20 2d f6 bd ca f4 6b be
       -0.09047243 -0.19083834 -0.12020326 -0.23042598
0001f0 c1 9d 4e be 4b 16 87 be b7 e3 8a be f4 1f 48 be
       -0.20177366 -0.26384196 -0.27126858 -0.19543439
000200 44 35 d5 bd 86 ea 9b 3d bc 6b a2 bd 28 c7 83 3c
       -0.1041055 0.07613091 -0.07930705 0.016086176
000210 ce 1a 81 bd 3a fa 37 3e d2 e4 cb 3d f0 57 23 3e
       -0.06303941 0.17966548 0.099557534 0.15951514
000220 68 14 d6 3d 39 0f 00 3e 30 9e b7 3d 78 20 44 3c
       0.10453111 0.12505807 0.08965719 0.011970632
000230 5f 19 04 3e 0b 63 e5 3d a0 69 27 be 23 e9 de 3d
       0.12900303 0.112005316 -0.16348886 0.10884311
000240 99 b6 9a bd 75 51 3c be c3 fa 13 be c1 b1 8f bd
       -0.07554359 -0.18390448 -0.14451127 -0.07016326
000250 04 1d e5 3d 86 a0 2c 3e fa 3c 92 bb e9 f9 18 3d
       0.11187175 0.1685811 -0.0044628354 0.037347708
000260 0c ef 08 3e 7e 38 dd 3d 18 97 06 3d 84 52 17 3e
       0.13372439 0.10801791 0.032858938 0.14777571
000270 80 0c 0b be 16 f1 08 3e 11 09 00 bf 19 ce b1 be
       -0.13578987 0.13373217 -0.50013834 -0.34727553
000280 37 98 b5 3d 34 32 37 be 49 38 bb 3d 30 db d5 bd
       0.08866923 -0.17890245 0.09141595 -0.10442197
000290 25 6e e7 3d 6a 13 29 bc 4e d1 0e 3e 13 07 2a be
       0.11300305 -0.01031957 0.13947031 -0.16604261
0002a0 23 26 ce bd 59 9b ca 3d 03 d3 41 be 0b 44 58 3c
       -0.10065868 0.098929115 -0.18928151 0.013199816
0002b0 94 d2 30 be 61 b7 9c bd 9a d9 de 3b 1c 6d 38 bd
       -0.17267829 -0.07652164 0.0068008425 -0.04502593
0002c0 f8 11 84 3c 96 ee ad bb 3a 86 db bd cc fe 8c bd
       0.01612185 -0.0053079827 -0.10718961 -0.06884536
0002d0 13 cf 28 bc 40 38 80 be fc b1 8b bd b3 25 83 be
       -0.010303277 -0.25042915 -0.06821057 -0.256147
0002e0 74 d1 93 3b 7f 3d fc 3d 5a 30 f5 bc 82 e5 37 3d
       0.0045110527 0.12316417 -0.029930282 0.04489661
0002f0 2e 3a 46 3c c1 68 09 3e 80 ea 5e 3e e7 e2 08 3e
       0.012098832 0.13418867 0.21769142 0.13367806
000300 62 f0 2f 3e 76 6c b2 bd 6c f9 7c bd d9 5a 1e be
       0.17181543 -0.087120935 -0.061761305 -0.15464343
000310 37 42 ad 3d 12 a0 b7 bc c6 cc bb be 82 cd c1 3d
       0.08459895 -0.022415195 -0.36679667 0.09463026
000320 04 83 88 bd 43 81 ae 3d b0 20 8c 3b 9b b4 8f be
       -0.06665614 0.085207485 0.0042763576 -0.2806748
000330 25 f3 52 bc 31 b2 2f 3e aa e9 ba be d7 ee 6c 3e
       -0.012875353 0.17157818 -0.36506397 0.23137985
000340 ad 22 62 3c ad c1 01 3e 40 c0 a1 3d 04 56 07 bf
       0.013802213 0.12671538 0.07897997 -0.52865624
000350 ee 79 8a be 26 aa d3 3d 65 82 46 3c 5b ec 27 bf
       -0.2704615 0.103351876 0.012116049 -0.65595025
000360 63 6a 80 bc 81 0a 14 3c 65 de 8a 3d 68 f1 b9 ba
       -0.01567573 0.009035707 0.067807 -0.0014186325
000370 3f 6c 9f be 4a 13 91 bd 29 3f 99 be 00 72 a5 be
       -0.31137273 -0.07083757 -0.29931 -0.32313538
000380 23 28 e3 3d df 0d b0 be 54 3c 43 bd f2 40 db 3c
       0.1109164 -0.34385583 -0.047664955 0.026764367
000390 9d 5e 14 3d 1d ac ef 3d 82 d5 1d be a8 49 e5 3d
       0.036223043 0.1170275 -0.15413478 0.111956894
0003a0 e6 3d 08 3e 39 15 c3 3d 0f c2 51 3d 40 2a 53 bd
       0.13304862 0.09525532 0.05121046 -0.051553965
0003b0 55 96 22 be 56 74 06 3e 1e 72 df bd b0 e4 72 bb
       -0.1587766 0.13130316 -0.10910438 -0.0037062578
0003c0 8c 82 85 be 5d 41 7d 3c 20 b5 ca bd b4 c3 3b bd
       -0.26076162 0.015457478 -0.09897828 -0.045840934
0003d0 dd c9 4d be f5 76 75 3e a9 a0 6b 3d 1e 14 90 3d
       -0.20096536 0.2397116 0.057526264 0.07035087
0003e0 b8 f9 ae be f7 18 12 be 59 b2 a6 3d 81 15 bf 3d
       -0.34174895 -0.14267336 0.08139486 0.093302734
0003f0 84 62 47 3d 62 29 de 3d 69 cf db be b4 2a 11 3e
       0.048677936 0.10847737 -0.4293168 0.14176446

linear_out.bias f4 [56]
000000 76 58 ad be b0 b3 0d be ec 48 1b bd b9 d7 6f 3b
       -0.33856553 -0.13838077 -0.03791134 0.0036597087
000010 b9 65 16 bd 34 1b 0d be d7 69 9a be 73 c1 9f bd
       -0.036718104 -0.13779908 -0.30158874 -0.078005694
000020 1e 01 e3 bc d7 6e 44 be 7a e4 ce 3d 85 a3 02 bd
       -0.027710494 -0.19182907 0.10102172 -0.031894226
000030 fa c1 bd 3d e6 23 e1 bd f0 d6 a2 3d 02 e5 9a be
       0.09265514 -0.10993175 0.07951152 -0.30252844
000040 46 0b 97 be 5c 3e 8c be 0c cb 0c be c8 1e cd bd
       -0.29500788 -0.27391326 -0.13749331 -0.10015637
000050 c5 a2 45 be 4b 37 8f be 97 d8 91 3d cd 8a 0f be
       -0.19300373 -0.27971873 0.07121389 -0.14017792
000060 a4 50 c5 bd f7 ed a4 be ba 80 b4 be 62 46 b2 be
       -0.096345216 -0.32212803 -0.3525446 -0.34819323
000070 a7 b2 11 be d6 1f 59 be 15 c4 0a be 3d ae ab 3b
       -0.14228307 -0.2120355 -0.13551362 0.0052392767
000080 c1 75 41 bd 20 bf 2b bd 98 3a 9b be ec 12 ff ba
       -0.04723144 -0.041930318 -0.3031814 -0.0019460595
000090 b7 ed 9b bd ef 62 78 be f9 79 b4 be 14 db e8 bd
       -0.076137 -0.2425649 -0.35249308 -0.11369911
0000a0 68 19 01 be 55 4f aa be de db 57 be 61 60 95 be
       -0.12607348 -0.3326365 -0.21079966 -0.29175094
0000b0 7a a4 a3 be d8 39 88 bc 3a db 6c bd 80 f8 94 bc
       -0.31961423 -0.016629145 -0.05782626 -0.0181849
0000c0 99 95 44 3d 22 43 f2 bd 19 74 65 be 46 86 23 be
       0.04799423 -0.11829211 -0.22407569 -0.1596919
0000d0 60 be f3 bd fd b1 00 3c 28 96 1e be 7a b0 a0 be
       -0.119015455 0.007854936 -0.15486968 -0.3138464
